node {
  name: "global_step/Initializer/zeros"
  op: "Const"
  attr {
    key: "_class"
    value {
      list {
        s: "loc:@global_step"
      }
    }
  }
  attr {
    key: "_output_shapes"
    value {
      list {
        shape {
        }
      }
    }
  }
  attr {
    key: "dtype"
    value {
      type: DT_INT64
    }
  }
  attr {
    key: "value"
    value {
      tensor {
        dtype: DT_INT64
        tensor_shape {
        }
        int64_val: 0
      }
    }
  }
}
node {
  name: "global_step"
  op: "VarHandleOp"
  attr {
    key: "_class"
    value {
      list {
        s: "loc:@global_step"
      }
    }
  }
  attr {
    key: "_output_shapes"
    value {
      list {
        shape {
        }
      }
    }
  }
  attr {
    key: "allowed_devices"
    value {
      list {
      }
    }
  }
  attr {
    key: "container"
    value {
      s: ""
    }
  }
  attr {
    key: "dtype"
    value {
      type: DT_INT64
    }
  }
  attr {
    key: "shape"
    value {
      shape {
      }
    }
  }
  attr {
    key: "shared_name"
    value {
      s: "global_step"
    }
  }
}
node {
  name: "global_step/IsInitialized/VarIsInitializedOp"
  op: "VarIsInitializedOp"
  input: "global_step"
  attr {
    key: "_output_shapes"
    value {
      list {
        shape {
        }
      }
    }
  }
}
node {
  name: "global_step/Assign"
  op: "AssignVariableOp"
  input: "global_step"
  input: "global_step/Initializer/zeros"
  attr {
    key: "dtype"
    value {
      type: DT_INT64
    }
  }
}
node {
  name: "global_step/Read/ReadVariableOp"
  op: "ReadVariableOp"
  input: "global_step"
  attr {
    key: "_output_shapes"
    value {
      list {
        shape {
        }
      }
    }
  }
  attr {
    key: "dtype"
    value {
      type: DT_INT64
    }
  }
}
node {
  name: "global_step/VarIsInitializedOp"
  op: "VarIsInitializedOp"
  input: "global_step"
  attr {
    key: "_output_shapes"
    value {
      list {
        shape {
        }
      }
    }
  }
}
node {
  name: "global_step/cond/Switch"
  op: "Switch"
  input: "global_step/VarIsInitializedOp"
  input: "global_step/VarIsInitializedOp"
  attr {
    key: "T"
    value {
      type: DT_BOOL
    }
  }
  attr {
    key: "_output_shapes"
    value {
      list {
        shape {
        }
        shape {
        }
      }
    }
  }
}
node {
  name: "global_step/cond/switch_t"
  op: "Identity"
  input: "global_step/cond/Switch:1"
  attr {
    key: "T"
    value {
      type: DT_BOOL
    }
  }
  attr {
    key: "_output_shapes"
    value {
      list {
        shape {
        }
      }
    }
  }
}
node {
  name: "global_step/cond/switch_f"
  op: "Identity"
  input: "global_step/cond/Switch"
  attr {
    key: "T"
    value {
      type: DT_BOOL
    }
  }
  attr {
    key: "_output_shapes"
    value {
      list {
        shape {
        }
      }
    }
  }
}
node {
  name: "global_step/cond/pred_id"
  op: "Identity"
  input: "global_step/VarIsInitializedOp"
  attr {
    key: "T"
    value {
      type: DT_BOOL
    }
  }
  attr {
    key: "_output_shapes"
    value {
      list {
        shape {
        }
      }
    }
  }
}
node {
  name: "global_step/cond/Read/ReadVariableOp"
  op: "ReadVariableOp"
  input: "global_step/cond/Read/ReadVariableOp/Switch:1"
  attr {
    key: "_output_shapes"
    value {
      list {
        shape {
        }
      }
    }
  }
  attr {
    key: "dtype"
    value {
      type: DT_INT64
    }
  }
}
node {
  name: "global_step/cond/Read/ReadVariableOp/Switch"
  op: "Switch"
  input: "global_step"
  input: "global_step/cond/pred_id"
  attr {
    key: "T"
    value {
      type: DT_RESOURCE
    }
  }
  attr {
    key: "_class"
    value {
      list {
        s: "loc:@global_step"
      }
    }
  }
  attr {
    key: "_output_shapes"
    value {
      list {
        shape {
        }
        shape {
        }
      }
    }
  }
}
node {
  name: "global_step/cond/Identity"
  op: "Identity"
  input: "global_step/cond/Read/ReadVariableOp"
  attr {
    key: "T"
    value {
      type: DT_INT64
    }
  }
  attr {
    key: "_output_shapes"
    value {
      list {
        shape {
        }
      }
    }
  }
}
node {
  name: "global_step/cond/Switch_1"
  op: "Switch"
  input: "global_step/Initializer/zeros"
  input: "global_step/cond/pred_id"
  attr {
    key: "T"
    value {
      type: DT_INT64
    }
  }
  attr {
    key: "_class"
    value {
      list {
        s: "loc:@global_step"
      }
    }
  }
  attr {
    key: "_output_shapes"
    value {
      list {
        shape {
        }
        shape {
        }
      }
    }
  }
}
node {
  name: "global_step/cond/Merge"
  op: "Merge"
  input: "global_step/cond/Switch_1"
  input: "global_step/cond/Identity"
  attr {
    key: "N"
    value {
      i: 2
    }
  }
  attr {
    key: "T"
    value {
      type: DT_INT64
    }
  }
  attr {
    key: "_output_shapes"
    value {
      list {
        shape {
        }
        shape {
        }
      }
    }
  }
}
node {
  name: "global_step/add/y"
  op: "Const"
  attr {
    key: "_output_shapes"
    value {
      list {
        shape {
        }
      }
    }
  }
  attr {
    key: "dtype"
    value {
      type: DT_INT64
    }
  }
  attr {
    key: "value"
    value {
      tensor {
        dtype: DT_INT64
        tensor_shape {
        }
        int64_val: 0
      }
    }
  }
}
node {
  name: "global_step/add"
  op: "AddV2"
  input: "global_step/cond/Merge"
  input: "global_step/add/y"
  attr {
    key: "T"
    value {
      type: DT_INT64
    }
  }
  attr {
    key: "_output_shapes"
    value {
      list {
        shape {
        }
      }
    }
  }
}
node {
  name: "input_pipeline_task0/normalize_element/component_0"
  op: "Const"
  device: "/job:tpu_worker/task:0/device:CPU:0"
  attr {
    key: "_output_shapes"
    value {
      list {
        shape {
          dim {
            size: 1024
          }
        }
      }
    }
  }
  attr {
    key: "dtype"
    value {
      type: DT_STRING
    }
  }
  attr {
    key: "value"
    value {
      tensor {
        dtype: DT_STRING
        tensor_shape {
          dim {
            size: 1024
          }
        }
        string_val: "…"
        string_val: "…"
        string_val: "…"
        string_val: "…"
        string_val: "…"
        string_val: "…"
        string_val: "…"
        string_val: "…"
        string_val: "…"
        string_val: "…"
        string_val: "…"
        string_val: "…"
        string_val: "…"
        string_val: "…"
        string_val: "…"
        string_val: "…"
        string_val: "…"
        string_val: "…"
        string_val: "…"
        string_val: "…"
        string_val: "…"
        string_val: "…"
        string_val: "…"
        string_val: "…"
        string_val: "…"
        string_val: "…"
        string_val: "…"
        string_val: "…"
        string_val: "…"
        string_val: "…"
        string_val: "…"
        string_val: "…"
        string_val: "…"
        string_val: "…"
        string_val: "…"
        string_val: "…"
        string_val: "…"
        string_val: "…"
        string_val: "…"
        string_val: "…"
        string_val: "…"
        string_val: "…"
        string_val: "…"
        string_val: "…"
        string_val: "…"
        string_val: "…"
        string_val: "…"
        string_val: "…"
        string_val: "…"
        string_val: "…"
        string_val: "…"
        string_val: "…"
        string_val: "…"
        string_val: "…"
        string_val: "…"
        string_val: "…"
        string_val: "…"
        string_val: "…"
        string_val: "…"
        string_val: "…"
        string_val: "…"
        string_val: "…"
        string_val: "…"
        string_val: "…"
        string_val: "…"
        string_val: "…"
        string_val: "…"
        string_val: "…"
        string_val: "…"
        string_val: "…"
        string_val: "…"
        string_val: "…"
        string_val: "…"
        string_val: "…"
        string_val: "…"
        string_val: "…"
        string_val: "…"
        string_val: "…"
        string_val: "…"
        string_val: "…"
        string_val: "…"
        string_val: "…"
        string_val: "…"
        string_val: "…"
        string_val: "…"
        string_val: "…"
        string_val: "…"
        string_val: "…"
        string_val: "…"
        string_val: "…"
        string_val: "…"
        string_val: "…"
        string_val: "…"
        string_val: "…"
        string_val: "…"
        string_val: "…"
        string_val: "…"
        string_val: "…"
        string_val: "…"
        string_val: "…"
        string_val: "…"
        string_val: "…"
        string_val: "…"
        string_val: "…"
        string_val: "…"
        string_val: "…"
        string_val: "…"
        string_val: "…"
        string_val: "…"
        string_val: "…"
        string_val: "…"
        string_val: "…"
        string_val: "…"
        string_val: "…"
        string_val: "…"
        string_val: "…"
        string_val: "…"
        string_val: "…"
        string_val: "…"
        string_val: "…"
        string_val: "…"
        string_val: "…"
        string_val: "…"
        string_val: "…"
        string_val: "…"
        string_val: "…"
        string_val: "…"
        string_val: "…"
        string_val: "…"
        string_val: "…"
        string_val: "…"
        string_val: "…"
        string_val: "…"
        string_val: "…"
        string_val: "…"
        string_val: "…"
        string_val: "…"
        string_val: "…"
        string_val: "…"
        string_val: "…"
        string_val: "…"
        string_val: "…"
        string_val: "…"
        string_val: "…"
        string_val: "…"
        string_val: "…"
        string_val: "…"
        string_val: "…"
        string_val: "…"
        string_val: "…"
        string_val: "…"
        string_val: "…"
        string_val: "…"
        string_val: "…"
        string_val: "…"
        string_val: "…"
        string_val: "…"
        string_val: "…"
        string_val: "…"
        string_val: "…"
        string_val: "…"
        string_val: "…"
        string_val: "…"
        string_val: "…"
        string_val: "…"
        string_val: "…"
        string_val: "…"
        string_val: "…"
        string_val: "…"
        string_val: "…"
        string_val: "…"
        string_val: "…"
        string_val: "…"
        string_val: "…"
        string_val: "…"
        string_val: "…"
        string_val: "…"
        string_val: "…"
        string_val: "…"
        string_val: "…"
        string_val: "…"
        string_val: "…"
        string_val: "…"
        string_val: "…"
        string_val: "…"
        string_val: "…"
        string_val: "…"
        string_val: "…"
        string_val: "…"
        string_val: "…"
        string_val: "…"
        string_val: "…"
        string_val: "…"
        string_val: "…"
        string_val: "…"
        string_val: "…"
        string_val: "…"
        string_val: "…"
        string_val: "…"
        string_val: "…"
        string_val: "…"
        string_val: "…"
        string_val: "…"
        string_val: "…"
        string_val: "…"
        string_val: "…"
        string_val: "…"
        string_val: "…"
        string_val: "…"
        string_val: "…"
        string_val: "…"
        string_val: "…"
        string_val: "…"
        string_val: "…"
        string_val: "…"
        string_val: "…"
        string_val: "…"
        string_val: "…"
        string_val: "…"
        string_val: "…"
        string_val: "…"
        string_val: "…"
        string_val: "…"
        string_val: "…"
        string_val: "…"
        string_val: "…"
        string_val: "…"
        string_val: "…"
        string_val: "…"
        string_val: "…"
        string_val: "…"
        string_val: "…"
        string_val: "…"
        string_val: "…"
        string_val: "…"
        string_val: "…"
        string_val: "…"
        string_val: "…"
        string_val: "…"
        string_val: "…"
        string_val: "…"
        string_val: "…"
        string_val: "…"
        string_val: "…"
        string_val: "…"
        string_val: "…"
        string_val: "…"
        string_val: "…"
        string_val: "…"
        string_val: "…"
        string_val: "…"
        string_val: "…"
        string_val: "…"
        string_val: "…"
        string_val: "…"
        string_val: "…"
        string_val: "…"
        string_val: "…"
        string_val: "…"
        string_val: "…"
        string_val: "…"
        string_val: "…"
        string_val: "…"
        string_val: "…"
        string_val: "…"
        string_val: "…"
        string_val: "…"
        string_val: "…"
        string_val: "…"
        string_val: "…"
        string_val: "…"
        string_val: "…"
        string_val: "…"
        string_val: "…"
        string_val: "…"
        string_val: "…"
        string_val: "…"
        string_val: "…"
        string_val: "…"
        string_val: "…"
        string_val: "…"
        string_val: "…"
        string_val: "…"
        string_val: "…"
        string_val: "…"
        string_val: "…"
        string_val: "…"
        string_val: "…"
        string_val: "…"
        string_val: "…"
        string_val: "…"
        string_val: "…"
        string_val: "…"
        string_val: "…"
        string_val: "…"
        string_val: "…"
        string_val: "…"
        string_val: "…"
        string_val: "…"
        string_val: "…"
        string_val: "…"
        string_val: "…"
        string_val: "…"
        string_val: "…"
        string_val: "…"
        string_val: "…"
        string_val: "…"
        string_val: "…"
        string_val: "…"
        string_val: "…"
        string_val: "…"
        string_val: "…"
        string_val: "…"
        string_val: "…"
        string_val: "…"
        string_val: "…"
        string_val: "…"
        string_val: "…"
        string_val: "…"
        string_val: "…"
        string_val: "…"
        string_val: "…"
        string_val: "…"
        string_val: "…"
        string_val: "…"
        string_val: "…"
        string_val: "…"
        string_val: "…"
        string_val: "…"
        string_val: "…"
        string_val: "…"
        string_val: "…"
        string_val: "…"
        string_val: "…"
        string_val: "…"
        string_val: "…"
        string_val: "…"
        string_val: "…"
        string_val: "…"
        string_val: "…"
        string_val: "…"
        string_val: "…"
        string_val: "…"
        string_val: "…"
        string_val: "…"
        string_val: "…"
        string_val: "…"
        string_val: "…"
        string_val: "…"
        string_val: "…"
        string_val: "…"
        string_val: "…"
        string_val: "…"
        string_val: "…"
        string_val: "…"
        string_val: "…"
        string_val: "…"
        string_val: "…"
        string_val: "…"
        string_val: "…"
        string_val: "…"
        string_val: "…"
        string_val: "…"
        string_val: "…"
        string_val: "…"
        string_val: "…"
        string_val: "…"
        string_val: "…"
        string_val: "…"
        string_val: "…"
        string_val: "…"
        string_val: "…"
        string_val: "…"
        string_val: "…"
        string_val: "…"
        string_val: "…"
        string_val: "…"
        string_val: "…"
        string_val: "…"
        string_val: "…"
        string_val: "…"
        string_val: "…"
        string_val: "…"
        string_val: "…"
        string_val: "…"
        string_val: "…"
        string_val: "…"
        string_val: "…"
        string_val: "…"
        string_val: "…"
        string_val: "…"
        string_val: "…"
        string_val: "…"
        string_val: "…"
        string_val: "…"
        string_val: "…"
        string_val: "…"
        string_val: "…"
        string_val: "…"
        string_val: "…"
        string_val: "…"
        string_val: "…"
        string_val: "…"
        string_val: "…"
        string_val: "…"
        string_val: "…"
        string_val: "…"
        string_val: "…"
        string_val: "…"
        string_val: "…"
        string_val: "…"
        string_val: "…"
        string_val: "…"
        string_val: "…"
        string_val: "…"
        string_val: "…"
        string_val: "…"
        string_val: "…"
        string_val: "…"
        string_val: "…"
        string_val: "…"
        string_val: "…"
        string_val: "…"
        string_val: "…"
        string_val: "…"
        string_val: "…"
        string_val: "…"
        string_val: "…"
        string_val: "…"
        string_val: "…"
        string_val: "…"
        string_val: "…"
        string_val: "…"
        string_val: "…"
        string_val: "…"
        string_val: "…"
        string_val: "…"
        string_val: "…"
        string_val: "…"
        string_val: "…"
        string_val: "…"
        string_val: "…"
        string_val: "…"
        string_val: "…"
        string_val: "…"
        string_val: "…"
        string_val: "…"
        string_val: "…"
        string_val: "…"
        string_val: "…"
        string_val: "…"
        string_val: "…"
        string_val: "…"
        string_val: "…"
        string_val: "…"
        string_val: "…"
        string_val: "…"
        string_val: "…"
        string_val: "…"
        string_val: "…"
        string_val: "…"
        string_val: "…"
        string_val: "…"
        string_val: "…"
        string_val: "…"
        string_val: "…"
        string_val: "…"
        string_val: "…"
        string_val: "…"
        string_val: "…"
        string_val: "…"
        string_val: "…"
        string_val: "…"
        string_val: "…"
        string_val: "…"
        string_val: "…"
        string_val: "…"
        string_val: "…"
        string_val: "…"
        string_val: "…"
        string_val: "…"
        string_val: "…"
        string_val: "…"
        string_val: "…"
        string_val: "…"
        string_val: "…"
        string_val: "…"
        string_val: "…"
        string_val: "…"
        string_val: "…"
        string_val: "…"
        string_val: "…"
        string_val: "…"
        string_val: "…"
        string_val: "…"
        string_val: "…"
        string_val: "…"
        string_val: "…"
        string_val: "…"
        string_val: "…"
        string_val: "…"
        string_val: "…"
        string_val: "…"
        string_val: "…"
        string_val: "…"
        string_val: "…"
        string_val: "…"
        string_val: "…"
        string_val: "…"
        string_val: "…"
        string_val: "…"
        string_val: "…"
        string_val: "…"
        string_val: "…"
        string_val: "…"
        string_val: "…"
        string_val: "…"
        string_val: "…"
        string_val: "…"
        string_val: "…"
        string_val: "…"
        string_val: "…"
        string_val: "…"
        string_val: "…"
        string_val: "…"
        string_val: "…"
        string_val: "…"
        string_val: "…"
        string_val: "…"
        string_val: "…"
        string_val: "…"
        string_val: "…"
        string_val: "…"
        string_val: "…"
        string_val: "…"
        string_val: "…"
        string_val: "…"
        string_val: "…"
        string_val: "…"
        string_val: "…"
        string_val: "…"
        string_val: "…"
        string_val: "…"
        string_val: "…"
        string_val: "…"
        string_val: "…"
        string_val: "…"
        string_val: "…"
        string_val: "…"
        string_val: "…"
        string_val: "…"
        string_val: "…"
        string_val: "…"
        string_val: "…"
        string_val: "…"
        string_val: "…"
        string_val: "…"
        string_val: "…"
        string_val: "…"
        string_val: "…"
        string_val: "…"
        string_val: "…"
        string_val: "…"
        string_val: "…"
        string_val: "…"
        string_val: "…"
        string_val: "…"
        string_val: "…"
        string_val: "…"
        string_val: "…"
        string_val: "…"
        string_val: "…"
        string_val: "…"
        string_val: "…"
        string_val: "…"
        string_val: "…"
        string_val: "…"
        string_val: "…"
        string_val: "…"
        string_val: "…"
        string_val: "…"
        string_val: "…"
        string_val: "…"
        string_val: "…"
        string_val: "…"
        string_val: "…"
        string_val: "…"
        string_val: "…"
        string_val: "…"
        string_val: "…"
        string_val: "…"
        string_val: "…"
        string_val: "…"
        string_val: "…"
        string_val: "…"
        string_val: "…"
        string_val: "…"
        string_val: "…"
        string_val: "…"
        string_val: "…"
        string_val: "…"
        string_val: "…"
        string_val: "…"
        string_val: "…"
        string_val: "…"
        string_val: "…"
        string_val: "…"
        string_val: "…"
        string_val: "…"
        string_val: "…"
        string_val: "…"
        string_val: "…"
        string_val: "…"
        string_val: "…"
        string_val: "…"
        string_val: "…"
        string_val: "…"
        string_val: "…"
        string_val: "…"
        string_val: "…"
        string_val: "…"
        string_val: "…"
        string_val: "…"
        string_val: "…"
        string_val: "…"
        string_val: "…"
        string_val: "…"
        string_val: "…"
        string_val: "…"
        string_val: "…"
        string_val: "…"
        string_val: "…"
        string_val: "…"
        string_val: "…"
        string_val: "…"
        string_val: "…"
        string_val: "…"
        string_val: "…"
        string_val: "…"
        string_val: "…"
        string_val: "…"
        string_val: "…"
        string_val: "…"
        string_val: "…"
        string_val: "…"
        string_val: "…"
        string_val: "…"
        string_val: "…"
        string_val: "…"
        string_val: "…"
        string_val: "…"
        string_val: "…"
        string_val: "…"
        string_val: "…"
        string_val: "…"
        string_val: "…"
        string_val: "…"
        string_val: "…"
        string_val: "…"
        string_val: "…"
        string_val: "…"
        string_val: "…"
        string_val: "…"
        string_val: "…"
        string_val: "…"
        string_val: "…"
        string_val: "…"
        string_val: "…"
        string_val: "…"
        string_val: "…"
        string_val: "…"
        string_val: "…"
        string_val: "…"
        string_val: "…"
        string_val: "…"
        string_val: "…"
        string_val: "…"
        string_val: "…"
        string_val: "…"
        string_val: "…"
        string_val: "…"
        string_val: "…"
        string_val: "…"
        string_val: "…"
        string_val: "…"
        string_val: "…"
        string_val: "…"
        string_val: "…"
        string_val: "…"
        string_val: "…"
        string_val: "…"
        string_val: "…"
        string_val: "…"
        string_val: "…"
        string_val: "…"
        string_val: "…"
        string_val: "…"
        string_val: "…"
        string_val: "…"
        string_val: "…"
        string_val: "…"
        string_val: "…"
        string_val: "…"
        string_val: "…"
        string_val: "…"
        string_val: "…"
        string_val: "…"
        string_val: "…"
        string_val: "…"
        string_val: "…"
        string_val: "…"
        string_val: "…"
        string_val: "…"
        string_val: "…"
        string_val: "…"
        string_val: "…"
        string_val: "…"
        string_val: "…"
        string_val: "…"
        string_val: "…"
        string_val: "…"
        string_val: "…"
        string_val: "…"
        string_val: "…"
        string_val: "…"
        string_val: "…"
        string_val: "…"
        string_val: "…"
        string_val: "…"
        string_val: "…"
        string_val: "…"
        string_val: "…"
        string_val: "…"
        string_val: "…"
        string_val: "…"
        string_val: "…"
        string_val: "…"
        string_val: "…"
        string_val: "…"
        string_val: "…"
        string_val: "…"
        string_val: "…"
        string_val: "…"
        string_val: "…"
        string_val: "…"
        string_val: "…"
        string_val: "…"
        string_val: "…"
        string_val: "…"
        string_val: "…"
        string_val: "…"
        string_val: "…"
        string_val: "…"
        string_val: "…"
        string_val: "…"
        string_val: "…"
        string_val: "…"
        string_val: "…"
        string_val: "…"
        string_val: "…"
        string_val: "…"
        string_val: "…"
        string_val: "…"
        string_val: "…"
        string_val: "…"
        string_val: "…"
        string_val: "…"
        string_val: "…"
        string_val: "…"
        string_val: "…"
        string_val: "…"
        string_val: "…"
        string_val: "…"
        string_val: "…"
        string_val: "…"
        string_val: "…"
        string_val: "…"
        string_val: "…"
        string_val: "…"
        string_val: "…"
        string_val: "…"
        string_val: "…"
        string_val: "…"
        string_val: "…"
        string_val: "…"
        string_val: "…"
        string_val: "…"
        string_val: "…"
        string_val: "…"
        string_val: "…"
        string_val: "…"
        string_val: "…"
        string_val: "…"
        string_val: "…"
        string_val: "…"
        string_val: "…"
        string_val: "…"
        string_val: "…"
        string_val: "…"
        string_val: "…"
        string_val: "…"
        string_val: "…"
        string_val: "…"
        string_val: "…"
        string_val: "…"
        string_val: "…"
        string_val: "…"
        string_val: "…"
        string_val: "…"
        string_val: "…"
        string_val: "…"
        string_val: "…"
        string_val: "…"
        string_val: "…"
        string_val: "…"
        string_val: "…"
        string_val: "…"
        string_val: "…"
        string_val: "…"
        string_val: "…"
        string_val: "…"
        string_val: "…"
        string_val: "…"
        string_val: "…"
        string_val: "…"
        string_val: "…"
        string_val: "…"
        string_val: "…"
        string_val: "…"
        string_val: "…"
        string_val: "…"
        string_val: "…"
        string_val: "…"
        string_val: "…"
        string_val: "…"
        string_val: "…"
        string_val: "…"
        string_val: "…"
        string_val: "…"
        string_val: "…"
        string_val: "…"
        string_val: "…"
        string_val: "…"
        string_val: "…"
        string_val: "…"
        string_val: "…"
        string_val: "…"
        string_val: "…"
        string_val: "…"
        string_val: "…"
        string_val: "…"
        string_val: "…"
        string_val: "…"
        string_val: "…"
        string_val: "…"
        string_val: "…"
        string_val: "…"
        string_val: "…"
        string_val: "…"
        string_val: "…"
        string_val: "…"
        string_val: "…"
        string_val: "…"
        string_val: "…"
        string_val: "…"
        string_val: "…"
        string_val: "…"
        string_val: "…"
        string_val: "…"
        string_val: "…"
        string_val: "…"
        string_val: "…"
        string_val: "…"
        string_val: "…"
        string_val: "…"
        string_val: "…"
        string_val: "…"
        string_val: "…"
        string_val: "…"
        string_val: "…"
        string_val: "…"
        string_val: "…"
        string_val: "…"
        string_val: "…"
        string_val: "…"
        string_val: "…"
        string_val: "…"
        string_val: "…"
        string_val: "…"
        string_val: "…"
        string_val: "…"
        string_val: "…"
        string_val: "…"
        string_val: "…"
        string_val: "…"
        string_val: "…"
        string_val: "…"
        string_val: "…"
        string_val: "…"
        string_val: "…"
        string_val: "…"
        string_val: "…"
        string_val: "…"
        string_val: "…"
        string_val: "…"
        string_val: "…"
        string_val: "…"
        string_val: "…"
        string_val: "…"
        string_val: "…"
        string_val: "…"
        string_val: "…"
        string_val: "…"
        string_val: "…"
        string_val: "…"
        string_val: "…"
        string_val: "…"
        string_val: "…"
        string_val: "…"
        string_val: "…"
        string_val: "…"
        string_val: "…"
        string_val: "…"
        string_val: "…"
        string_val: "…"
        string_val: "…"
        string_val: "…"
        string_val: "…"
        string_val: "…"
        string_val: "…"
        string_val: "…"
        string_val: "…"
        string_val: "…"
        string_val: "…"
        string_val: "…"
        string_val: "…"
        string_val: "…"
        string_val: "…"
        string_val: "…"
        string_val: "…"
        string_val: "…"
        string_val: "…"
        string_val: "…"
        string_val: "…"
        string_val: "…"
        string_val: "…"
        string_val: "…"
        string_val: "…"
        string_val: "…"
        string_val: "…"
        string_val: "…"
        string_val: "…"
        string_val: "…"
        string_val: "…"
        string_val: "…"
        string_val: "…"
        string_val: "…"
        string_val: "…"
        string_val: "…"
        string_val: "…"
        string_val: "…"
        string_val: "…"
        string_val: "…"
        string_val: "…"
        string_val: "…"
        string_val: "…"
        string_val: "…"
        string_val: "…"
        string_val: "…"
        string_val: "…"
        string_val: "…"
        string_val: "…"
        string_val: "…"
        string_val: "…"
        string_val: "…"
        string_val: "…"
        string_val: "…"
        string_val: "…"
        string_val: "…"
        string_val: "…"
        string_val: "…"
        string_val: "…"
        string_val: "…"
        string_val: "…"
        string_val: "…"
        string_val: "…"
        string_val: "…"
        string_val: "…"
        string_val: "…"
        string_val: "…"
        string_val: "…"
        string_val: "…"
        string_val: "…"
        string_val: "…"
        string_val: "…"
        string_val: "…"
        string_val: "…"
        string_val: "…"
        string_val: "…"
        string_val: "…"
        string_val: "…"
        string_val: "…"
        string_val: "…"
        string_val: "…"
        string_val: "…"
        string_val: "…"
        string_val: "…"
        string_val: "…"
        string_val: "…"
        string_val: "…"
        string_val: "…"
        string_val: "…"
        string_val: "…"
        string_val: "…"
        string_val: "…"
        string_val: "…"
        string_val: "…"
        string_val: "…"
        string_val: "…"
        string_val: "…"
        string_val: "…"
        string_val: "…"
        string_val: "…"
        string_val: "…"
      }
    }
  }
}
node {
  name: "input_pipeline_task0/normalize_element/component_1"
  op: "Const"
  device: "/job:tpu_worker/task:0/device:CPU:0"
  attr {
    key: "_output_shapes"
    value {
      list {
        shape {
          dim {
            size: 1024
          }
        }
      }
    }
  }
  attr {
    key: "dtype"
    value {
      type: DT_INT64
    }
  }
  attr {
    key: "value"
    value {
      tensor {
        dtype: DT_INT64
        tensor_shape {
          dim {
            size: 1024
          }
        }
        tensor_content: "…"
      }
    }
  }
}
node {
  name: "input_pipeline_task0/normalize_element/component_2"
  op: "Const"
  device: "/job:tpu_worker/task:0/device:CPU:0"
  attr {
    key: "_output_shapes"
    value {
      list {
        shape {
          dim {
            size: 1024
          }
        }
      }
    }
  }
  attr {
    key: "dtype"
    value {
      type: DT_INT64
    }
  }
  attr {
    key: "value"
    value {
      tensor {
        dtype: DT_INT64
        tensor_shape {
          dim {
            size: 1024
          }
        }
        tensor_content: "…"
      }
    }
  }
}
node {
  name: "input_pipeline_task0/TensorSliceDataset"
  op: "TensorSliceDataset"
  input: "input_pipeline_task0/normalize_element/component_0"
  input: "input_pipeline_task0/normalize_element/component_1"
  input: "input_pipeline_task0/normalize_element/component_2"
  device: "/job:tpu_worker/task:0/device:CPU:0"
  attr {
    key: "Toutput_types"
    value {
      list {
        type: DT_STRING
        type: DT_INT64
        type: DT_INT64
      }
    }
  }
  attr {
    key: "_output_shapes"
    value {
      list {
        shape {
        }
      }
    }
  }
  attr {
    key: "output_shapes"
    value {
      list {
        shape {
        }
        shape {
        }
        shape {
        }
      }
    }
  }
}
node {
  name: "input_pipeline_task0/buffer_size"
  op: "Const"
  device: "/job:tpu_worker/task:0/device:CPU:0"
  attr {
    key: "_output_shapes"
    value {
      list {
        shape {
        }
      }
    }
  }
  attr {
    key: "dtype"
    value {
      type: DT_INT64
    }
  }
  attr {
    key: "value"
    value {
      tensor {
        dtype: DT_INT64
        tensor_shape {
        }
        int64_val: 1024
      }
    }
  }
}
node {
  name: "input_pipeline_task0/seed"
  op: "Const"
  device: "/job:tpu_worker/task:0/device:CPU:0"
  attr {
    key: "_output_shapes"
    value {
      list {
        shape {
        }
      }
    }
  }
  attr {
    key: "dtype"
    value {
      type: DT_INT64
    }
  }
  attr {
    key: "value"
    value {
      tensor {
        dtype: DT_INT64
        tensor_shape {
        }
        int64_val: 0
      }
    }
  }
}
node {
  name: "input_pipeline_task0/seed2"
  op: "Const"
  device: "/job:tpu_worker/task:0/device:CPU:0"
  attr {
    key: "_output_shapes"
    value {
      list {
        shape {
        }
      }
    }
  }
  attr {
    key: "dtype"
    value {
      type: DT_INT64
    }
  }
  attr {
    key: "value"
    value {
      tensor {
        dtype: DT_INT64
        tensor_shape {
        }
        int64_val: 0
      }
    }
  }
}
node {
  name: "input_pipeline_task0/ShuffleDataset"
  op: "ShuffleDataset"
  input: "input_pipeline_task0/TensorSliceDataset"
  input: "input_pipeline_task0/buffer_size"
  input: "input_pipeline_task0/seed"
  input: "input_pipeline_task0/seed2"
  device: "/job:tpu_worker/task:0/device:CPU:0"
  attr {
    key: "_output_shapes"
    value {
      list {
        shape {
        }
      }
    }
  }
  attr {
    key: "output_shapes"
    value {
      list {
        shape {
        }
        shape {
        }
        shape {
        }
      }
    }
  }
  attr {
    key: "output_types"
    value {
      list {
        type: DT_STRING
        type: DT_INT64
        type: DT_INT64
      }
    }
  }
  attr {
    key: "reshuffle_each_iteration"
    value {
      b: true
    }
  }
}
node {
  name: "input_pipeline_task0/cycle_length"
  op: "Const"
  device: "/job:tpu_worker/task:0/device:CPU:0"
  attr {
    key: "_output_shapes"
    value {
      list {
        shape {
        }
      }
    }
  }
  attr {
    key: "dtype"
    value {
      type: DT_INT64
    }
  }
  attr {
    key: "value"
    value {
      tensor {
        dtype: DT_INT64
        tensor_shape {
        }
        int64_val: 16
      }
    }
  }
}
node {
  name: "input_pipeline_task0/block_length"
  op: "Const"
  device: "/job:tpu_worker/task:0/device:CPU:0"
  attr {
    key: "_output_shapes"
    value {
      list {
        shape {
        }
      }
    }
  }
  attr {
    key: "dtype"
    value {
      type: DT_INT64
    }
  }
  attr {
    key: "value"
    value {
      tensor {
        dtype: DT_INT64
        tensor_shape {
        }
        int64_val: 16
      }
    }
  }
}
node {
  name: "input_pipeline_task0/buffer_output_elements"
  op: "Const"
  device: "/job:tpu_worker/task:0/device:CPU:0"
  attr {
    key: "_output_shapes"
    value {
      list {
        shape {
        }
      }
    }
  }
  attr {
    key: "dtype"
    value {
      type: DT_INT64
    }
  }
  attr {
    key: "value"
    value {
      tensor {
        dtype: DT_INT64
        tensor_shape {
        }
        int64_val: -1
      }
    }
  }
}
node {
  name: "input_pipeline_task0/prefetch_input_elements"
  op: "Const"
  device: "/job:tpu_worker/task:0/device:CPU:0"
  attr {
    key: "_output_shapes"
    value {
      list {
        shape {
        }
      }
    }
  }
  attr {
    key: "dtype"
    value {
      type: DT_INT64
    }
  }
  attr {
    key: "value"
    value {
      tensor {
        dtype: DT_INT64
        tensor_shape {
        }
        int64_val: -1
      }
    }
  }
}
node {
  name: "input_pipeline_task0/num_parallel_calls"
  op: "Const"
  device: "/job:tpu_worker/task:0/device:CPU:0"
  attr {
    key: "_output_shapes"
    value {
      list {
        shape {
        }
      }
    }
  }
  attr {
    key: "dtype"
    value {
      type: DT_INT64
    }
  }
  attr {
    key: "value"
    value {
      tensor {
        dtype: DT_INT64
        tensor_shape {
        }
        int64_val: -1
      }
    }
  }
}
node {
  name: "input_pipeline_task0/ParallelInterleaveDatasetV4"
  op: "ParallelInterleaveDatasetV4"
  input: "input_pipeline_task0/ShuffleDataset"
  input: "input_pipeline_task0/cycle_length"
  input: "input_pipeline_task0/block_length"
  input: "input_pipeline_task0/buffer_output_elements"
  input: "input_pipeline_task0/prefetch_input_elements"
  input: "input_pipeline_task0/num_parallel_calls"
  device: "/job:tpu_worker/task:0/device:CPU:0"
  attr {
    key: "Targuments"
    value {
      list {
      }
    }
  }
  attr {
    key: "_output_shapes"
    value {
      list {
        shape {
        }
      }
    }
  }
  attr {
    key: "deterministic"
    value {
      s: "default"
    }
  }
  attr {
    key: "f"
    value {
      func {
        name: "__inference_Dataset_interleave_classfunctools.partial_50"
        attr {
          key: "_tf_data_function"
          value {
            b: true
          }
        }
      }
    }
  }
  attr {
    key: "output_shapes"
    value {
      list {
        shape {
        }
      }
    }
  }
  attr {
    key: "output_types"
    value {
      list {
        type: DT_STRING
      }
    }
  }
}
node {
  name: "input_pipeline_task0/expected_cardinality"
  op: "Const"
  device: "/job:tpu_worker/task:0/device:CPU:0"
  attr {
    key: "_output_shapes"
    value {
      list {
        shape {
        }
      }
    }
  }
  attr {
    key: "dtype"
    value {
      type: DT_INT64
    }
  }
  attr {
    key: "value"
    value {
      tensor {
        dtype: DT_INT64
        tensor_shape {
        }
        int64_val: 1281167
      }
    }
  }
}
node {
  name: "input_pipeline_task0/AssertCardinalityDataset"
  op: "AssertCardinalityDataset"
  input: "input_pipeline_task0/ParallelInterleaveDatasetV4"
  input: "input_pipeline_task0/expected_cardinality"
  device: "/job:tpu_worker/task:0/device:CPU:0"
  attr {
    key: "_output_shapes"
    value {
      list {
        shape {
        }
      }
    }
  }
  attr {
    key: "output_shapes"
    value {
      list {
        shape {
        }
      }
    }
  }
  attr {
    key: "output_types"
    value {
      list {
        type: DT_STRING
      }
    }
  }
}
node {
  name: "input_pipeline_task0/num_parallel_calls_1"
  op: "Const"
  device: "/job:tpu_worker/task:0/device:CPU:0"
  attr {
    key: "_output_shapes"
    value {
      list {
        shape {
        }
      }
    }
  }
  attr {
    key: "dtype"
    value {
      type: DT_INT64
    }
  }
  attr {
    key: "value"
    value {
      tensor {
        dtype: DT_INT64
        tensor_shape {
        }
        int64_val: -1
      }
    }
  }
}
node {
  name: "input_pipeline_task0/ParallelMapDatasetV2"
  op: "ParallelMapDatasetV2"
  input: "input_pipeline_task0/AssertCardinalityDataset"
  input: "input_pipeline_task0/num_parallel_calls_1"
  device: "/job:tpu_worker/task:0/device:CPU:0"
  attr {
    key: "Targuments"
    value {
      list {
      }
    }
  }
  attr {
    key: "_output_shapes"
    value {
      list {
        shape {
        }
      }
    }
  }
  attr {
    key: "deterministic"
    value {
      s: "default"
    }
  }
  attr {
    key: "f"
    value {
      func {
        name: "__inference_Dataset_map_ExampleParser.parse_example_80"
        attr {
          key: "_tf_data_function"
          value {
            b: true
          }
        }
      }
    }
  }
  attr {
    key: "output_shapes"
    value {
      list {
        shape {
        }
        shape {
        }
        shape {
        }
      }
    }
  }
  attr {
    key: "output_types"
    value {
      list {
        type: DT_STRING
        type: DT_STRING
        type: DT_INT64
      }
    }
  }
  attr {
    key: "preserve_cardinality"
    value {
      b: true
    }
  }
  attr {
    key: "use_inter_op_parallelism"
    value {
      b: true
    }
  }
}
node {
  name: "input_pipeline_task0/num_parallel_calls_2"
  op: "Const"
  device: "/job:tpu_worker/task:0/device:CPU:0"
  attr {
    key: "_output_shapes"
    value {
      list {
        shape {
        }
      }
    }
  }
  attr {
    key: "dtype"
    value {
      type: DT_INT64
    }
  }
  attr {
    key: "value"
    value {
      tensor {
        dtype: DT_INT64
        tensor_shape {
        }
        int64_val: -1
      }
    }
  }
}
node {
  name: "input_pipeline_task0/ParallelMapDatasetV2_1"
  op: "ParallelMapDatasetV2"
  input: "input_pipeline_task0/ParallelMapDatasetV2"
  input: "input_pipeline_task0/num_parallel_calls_2"
  device: "/job:tpu_worker/task:0/device:CPU:0"
  attr {
    key: "Targuments"
    value {
      list {
      }
    }
  }
  attr {
    key: "_output_shapes"
    value {
      list {
        shape {
        }
      }
    }
  }
  attr {
    key: "deterministic"
    value {
      s: "default"
    }
  }
  attr {
    key: "f"
    value {
      func {
        name: "__inference_Dataset_map_classfunctools.partial_173"
        attr {
          key: "_tf_data_function"
          value {
            b: true
          }
        }
      }
    }
  }
  attr {
    key: "output_shapes"
    value {
      list {
        shape {
        }
        shape {
          dim {
            size: -1
          }
          dim {
            size: -1
          }
          dim {
            size: 3
          }
        }
        shape {
        }
      }
    }
  }
  attr {
    key: "output_types"
    value {
      list {
        type: DT_STRING
        type: DT_UINT8
        type: DT_INT64
      }
    }
  }
  attr {
    key: "preserve_cardinality"
    value {
      b: true
    }
  }
  attr {
    key: "use_inter_op_parallelism"
    value {
      b: true
    }
  }
}
node {
  name: "input_pipeline_task0/buffer_size_1"
  op: "Const"
  device: "/job:tpu_worker/task:0/device:CPU:0"
  attr {
    key: "_output_shapes"
    value {
      list {
        shape {
        }
      }
    }
  }
  attr {
    key: "dtype"
    value {
      type: DT_INT64
    }
  }
  attr {
    key: "value"
    value {
      tensor {
        dtype: DT_INT64
        tensor_shape {
        }
        int64_val: -1
      }
    }
  }
}
node {
  name: "input_pipeline_task0/PrefetchDataset"
  op: "PrefetchDataset"
  input: "input_pipeline_task0/ParallelMapDatasetV2_1"
  input: "input_pipeline_task0/buffer_size_1"
  device: "/job:tpu_worker/task:0/device:CPU:0"
  attr {
    key: "_output_shapes"
    value {
      list {
        shape {
        }
      }
    }
  }
  attr {
    key: "legacy_autotune"
    value {
      b: true
    }
  }
  attr {
    key: "output_shapes"
    value {
      list {
        shape {
        }
        shape {
          dim {
            size: -1
          }
          dim {
            size: -1
          }
          dim {
            size: 3
          }
        }
        shape {
        }
      }
    }
  }
  attr {
    key: "output_types"
    value {
      list {
        type: DT_STRING
        type: DT_UINT8
        type: DT_INT64
      }
    }
  }
  attr {
    key: "slack_period"
    value {
      i: 0
    }
  }
}
node {
  name: "input_pipeline_task0/num_parallel_calls_3"
  op: "Const"
  device: "/job:tpu_worker/task:0/device:CPU:0"
  attr {
    key: "_output_shapes"
    value {
      list {
        shape {
        }
      }
    }
  }
  attr {
    key: "dtype"
    value {
      type: DT_INT64
    }
  }
  attr {
    key: "value"
    value {
      tensor {
        dtype: DT_INT64
        tensor_shape {
        }
        int64_val: -1
      }
    }
  }
}
node {
  name: "input_pipeline_task0/ParallelMapDatasetV2_2"
  op: "ParallelMapDatasetV2"
  input: "input_pipeline_task0/PrefetchDataset"
  input: "input_pipeline_task0/num_parallel_calls_3"
  device: "/job:tpu_worker/task:0/device:CPU:0"
  attr {
    key: "Targuments"
    value {
      list {
      }
    }
  }
  attr {
    key: "_output_shapes"
    value {
      list {
        shape {
        }
      }
    }
  }
  attr {
    key: "deterministic"
    value {
      s: "default"
    }
  }
  attr {
    key: "f"
    value {
      func {
        name: "__inference_Dataset_map_lambda_184"
        attr {
          key: "_tf_data_function"
          value {
            b: true
          }
        }
      }
    }
  }
  attr {
    key: "output_shapes"
    value {
      list {
        shape {
          dim {
            size: -1
          }
          dim {
            size: -1
          }
          dim {
            size: 3
          }
        }
        shape {
        }
      }
    }
  }
  attr {
    key: "output_types"
    value {
      list {
        type: DT_UINT8
        type: DT_INT64
      }
    }
  }
  attr {
    key: "preserve_cardinality"
    value {
      b: true
    }
  }
  attr {
    key: "use_inter_op_parallelism"
    value {
      b: true
    }
  }
}
node {
  name: "input_pipeline_task0/buffer_size_2"
  op: "Const"
  device: "/job:tpu_worker/task:0/device:CPU:0"
  attr {
    key: "_output_shapes"
    value {
      list {
        shape {
        }
      }
    }
  }
  attr {
    key: "dtype"
    value {
      type: DT_INT64
    }
  }
  attr {
    key: "value"
    value {
      tensor {
        dtype: DT_INT64
        tensor_shape {
        }
        int64_val: 2560
      }
    }
  }
}
node {
  name: "input_pipeline_task0/seed_1"
  op: "Const"
  device: "/job:tpu_worker/task:0/device:CPU:0"
  attr {
    key: "_output_shapes"
    value {
      list {
        shape {
        }
      }
    }
  }
  attr {
    key: "dtype"
    value {
      type: DT_INT64
    }
  }
  attr {
    key: "value"
    value {
      tensor {
        dtype: DT_INT64
        tensor_shape {
        }
        int64_val: 0
      }
    }
  }
}
node {
  name: "input_pipeline_task0/seed2_1"
  op: "Const"
  device: "/job:tpu_worker/task:0/device:CPU:0"
  attr {
    key: "_output_shapes"
    value {
      list {
        shape {
        }
      }
    }
  }
  attr {
    key: "dtype"
    value {
      type: DT_INT64
    }
  }
  attr {
    key: "value"
    value {
      tensor {
        dtype: DT_INT64
        tensor_shape {
        }
        int64_val: 0
      }
    }
  }
}
node {
  name: "input_pipeline_task0/ShuffleDataset_1"
  op: "ShuffleDataset"
  input: "input_pipeline_task0/ParallelMapDatasetV2_2"
  input: "input_pipeline_task0/buffer_size_2"
  input: "input_pipeline_task0/seed_1"
  input: "input_pipeline_task0/seed2_1"
  device: "/job:tpu_worker/task:0/device:CPU:0"
  attr {
    key: "_output_shapes"
    value {
      list {
        shape {
        }
      }
    }
  }
  attr {
    key: "output_shapes"
    value {
      list {
        shape {
          dim {
            size: -1
          }
          dim {
            size: -1
          }
          dim {
            size: 3
          }
        }
        shape {
        }
      }
    }
  }
  attr {
    key: "output_types"
    value {
      list {
        type: DT_UINT8
        type: DT_INT64
      }
    }
  }
  attr {
    key: "reshuffle_each_iteration"
    value {
      b: true
    }
  }
}
node {
  name: "input_pipeline_task0/count"
  op: "Const"
  device: "/job:tpu_worker/task:0/device:CPU:0"
  attr {
    key: "_output_shapes"
    value {
      list {
        shape {
        }
      }
    }
  }
  attr {
    key: "dtype"
    value {
      type: DT_INT64
    }
  }
  attr {
    key: "value"
    value {
      tensor {
        dtype: DT_INT64
        tensor_shape {
        }
        int64_val: -1
      }
    }
  }
}
node {
  name: "input_pipeline_task0/RepeatDataset"
  op: "RepeatDataset"
  input: "input_pipeline_task0/ShuffleDataset_1"
  input: "input_pipeline_task0/count"
  device: "/job:tpu_worker/task:0/device:CPU:0"
  attr {
    key: "_output_shapes"
    value {
      list {
        shape {
        }
      }
    }
  }
  attr {
    key: "output_shapes"
    value {
      list {
        shape {
          dim {
            size: -1
          }
          dim {
            size: -1
          }
          dim {
            size: 3
          }
        }
        shape {
        }
      }
    }
  }
  attr {
    key: "output_types"
    value {
      list {
        type: DT_UINT8
        type: DT_INT64
      }
    }
  }
}
node {
  name: "input_pipeline_task0/num_parallel_calls_4"
  op: "Const"
  device: "/job:tpu_worker/task:0/device:CPU:0"
  attr {
    key: "_output_shapes"
    value {
      list {
        shape {
        }
      }
    }
  }
  attr {
    key: "dtype"
    value {
      type: DT_INT64
    }
  }
  attr {
    key: "value"
    value {
      tensor {
        dtype: DT_INT64
        tensor_shape {
        }
        int64_val: -1
      }
    }
  }
}
node {
  name: "input_pipeline_task0/ParallelMapDatasetV2_3"
  op: "ParallelMapDatasetV2"
  input: "input_pipeline_task0/RepeatDataset"
  input: "input_pipeline_task0/num_parallel_calls_4"
  device: "/job:tpu_worker/task:0/device:CPU:0"
  attr {
    key: "Targuments"
    value {
      list {
      }
    }
  }
  attr {
    key: "_output_shapes"
    value {
      list {
        shape {
        }
      }
    }
  }
  attr {
    key: "deterministic"
    value {
      s: "default"
    }
  }
  attr {
    key: "f"
    value {
      func {
        name: "__inference_Dataset_map_map_fn_1318"
        attr {
          key: "_tf_data_function"
          value {
            b: true
          }
        }
      }
    }
  }
  attr {
    key: "output_shapes"
    value {
      list {
        shape {
          dim {
            size: 224
          }
          dim {
            size: 224
          }
          dim {
            size: 6
          }
        }
        shape {
          dim {
            size: 1000
          }
        }
        shape {
        }
      }
    }
  }
  attr {
    key: "output_types"
    value {
      list {
        type: DT_FLOAT
        type: DT_FLOAT
        type: DT_FLOAT
      }
    }
  }
  attr {
    key: "preserve_cardinality"
    value {
      b: true
    }
  }
  attr {
    key: "use_inter_op_parallelism"
    value {
      b: true
    }
  }
}
node {
  name: "input_pipeline_task0/batch_size"
  op: "Const"
  device: "/job:tpu_worker/task:0/device:CPU:0"
  attr {
    key: "_output_shapes"
    value {
      list {
        shape {
        }
      }
    }
  }
  attr {
    key: "dtype"
    value {
      type: DT_INT64
    }
  }
  attr {
    key: "value"
    value {
      tensor {
        dtype: DT_INT64
        tensor_shape {
        }
        int64_val: 256
      }
    }
  }
}
node {
  name: "input_pipeline_task0/drop_remainder"
  op: "Const"
  device: "/job:tpu_worker/task:0/device:CPU:0"
  attr {
    key: "_output_shapes"
    value {
      list {
        shape {
        }
      }
    }
  }
  attr {
    key: "dtype"
    value {
      type: DT_BOOL
    }
  }
  attr {
    key: "value"
    value {
      tensor {
        dtype: DT_BOOL
        tensor_shape {
        }
        bool_val: true
      }
    }
  }
}
node {
  name: "input_pipeline_task0/BatchDatasetV2"
  op: "BatchDatasetV2"
  input: "input_pipeline_task0/ParallelMapDatasetV2_3"
  input: "input_pipeline_task0/batch_size"
  input: "input_pipeline_task0/drop_remainder"
  device: "/job:tpu_worker/task:0/device:CPU:0"
  attr {
    key: "_output_shapes"
    value {
      list {
        shape {
        }
      }
    }
  }
  attr {
    key: "output_shapes"
    value {
      list {
        shape {
          dim {
            size: 256
          }
          dim {
            size: 224
          }
          dim {
            size: 224
          }
          dim {
            size: 6
          }
        }
        shape {
          dim {
            size: 256
          }
          dim {
            size: 1000
          }
        }
        shape {
          dim {
            size: 256
          }
        }
      }
    }
  }
  attr {
    key: "output_types"
    value {
      list {
        type: DT_FLOAT
        type: DT_FLOAT
        type: DT_FLOAT
      }
    }
  }
  attr {
    key: "parallel_copy"
    value {
      b: false
    }
  }
}
node {
  name: "input_pipeline_task0/MapDataset"
  op: "MapDataset"
  input: "input_pipeline_task0/BatchDatasetV2"
  device: "/job:tpu_worker/task:0/device:CPU:0"
  attr {
    key: "Targuments"
    value {
      list {
      }
    }
  }
  attr {
    key: "_output_shapes"
    value {
      list {
        shape {
        }
      }
    }
  }
  attr {
    key: "f"
    value {
      func {
        name: "__inference_Dataset_map__pad_to_batch_1354"
        attr {
          key: "_tf_data_function"
          value {
            b: true
          }
        }
      }
    }
  }
  attr {
    key: "output_shapes"
    value {
      list {
        shape {
          dim {
            size: 256
          }
          dim {
            size: 224
          }
          dim {
            size: 224
          }
          dim {
            size: 6
          }
        }
        shape {
          dim {
            size: 256
          }
          dim {
            size: 1000
          }
        }
        shape {
          dim {
            size: 256
          }
        }
      }
    }
  }
  attr {
    key: "output_types"
    value {
      list {
        type: DT_FLOAT
        type: DT_FLOAT
        type: DT_FLOAT
      }
    }
  }
  attr {
    key: "preserve_cardinality"
    value {
      b: true
    }
  }
  attr {
    key: "use_inter_op_parallelism"
    value {
      b: true
    }
  }
}
node {
  name: "input_pipeline_task0/OneShotIterator"
  op: "OneShotIterator"
  device: "/job:tpu_worker/task:0/device:CPU:0"
  attr {
    key: "_output_shapes"
    value {
      list {
        shape {
        }
      }
    }
  }
  attr {
    key: "container"
    value {
      s: ""
    }
  }
  attr {
    key: "dataset_factory"
    value {
      func {
        name: "_make_dataset_NAl6xWlhXDo"
      }
    }
  }
  attr {
    key: "output_shapes"
    value {
      list {
        shape {
          dim {
            size: 256
          }
          dim {
            size: 224
          }
          dim {
            size: 224
          }
          dim {
            size: 6
          }
        }
        shape {
          dim {
            size: 256
          }
          dim {
            size: 1000
          }
        }
        shape {
          dim {
            size: 256
          }
        }
      }
    }
  }
  attr {
    key: "output_types"
    value {
      list {
        type: DT_FLOAT
        type: DT_FLOAT
        type: DT_FLOAT
      }
    }
  }
  attr {
    key: "shared_name"
    value {
      s: ""
    }
  }
}
node {
  name: "input_pipeline_task0/IteratorToStringHandle"
  op: "IteratorToStringHandle"
  input: "input_pipeline_task0/OneShotIterator"
  device: "/job:tpu_worker/task:0/device:CPU:0"
  attr {
    key: "_output_shapes"
    value {
      list {
        shape {
        }
      }
    }
  }
}
node {
  name: "input_pipeline_task0/IteratorGetNext"
  op: "IteratorGetNext"
  input: "input_pipeline_task0/OneShotIterator"
  device: "/job:tpu_worker/task:0/device:CPU:0"
  attr {
    key: "_output_shapes"
    value {
      list {
        shape {
          dim {
            size: 256
          }
          dim {
            size: 224
          }
          dim {
            size: 224
          }
          dim {
            size: 6
          }
        }
        shape {
          dim {
            size: 256
          }
          dim {
            size: 1000
          }
        }
        shape {
          dim {
            size: 256
          }
        }
      }
    }
  }
  attr {
    key: "output_shapes"
    value {
      list {
        shape {
          dim {
            size: 256
          }
          dim {
            size: 224
          }
          dim {
            size: 224
          }
          dim {
            size: 6
          }
        }
        shape {
          dim {
            size: 256
          }
          dim {
            size: 1000
          }
        }
        shape {
          dim {
            size: 256
          }
        }
      }
    }
  }
  attr {
    key: "output_types"
    value {
      list {
        type: DT_FLOAT
        type: DT_FLOAT
        type: DT_FLOAT
      }
    }
  }
}
node {
  name: "input_pipeline_task0/Const"
  op: "Const"
  device: "/job:tpu_worker/task:0/device:CPU:0"
  attr {
    key: "_class"
    value {
      list {
        s: "loc:@input_pipeline_task0/IteratorGetNext"
      }
    }
  }
  attr {
    key: "_output_shapes"
    value {
      list {
        shape {
        }
      }
    }
  }
  attr {
    key: "dtype"
    value {
      type: DT_INT32
    }
  }
  attr {
    key: "value"
    value {
      tensor {
        dtype: DT_INT32
        tensor_shape {
        }
        int_val: 8
      }
    }
  }
}
node {
  name: "input_pipeline_task0/InfeedQueue/split/0/split_dim"
  op: "Const"
  device: "/job:tpu_worker/task:0/device:CPU:0"
  attr {
    key: "_class"
    value {
      list {
        s: "loc:@input_pipeline_task0/IteratorGetNext"
      }
    }
  }
  attr {
    key: "_output_shapes"
    value {
      list {
        shape {
        }
      }
    }
  }
  attr {
    key: "dtype"
    value {
      type: DT_INT32
    }
  }
  attr {
    key: "value"
    value {
      tensor {
        dtype: DT_INT32
        tensor_shape {
        }
        int_val: 0
      }
    }
  }
}
node {
  name: "input_pipeline_task0/InfeedQueue/split/0"
  op: "Split"
  input: "input_pipeline_task0/InfeedQueue/split/0/split_dim"
  input: "input_pipeline_task0/IteratorGetNext"
  device: "/job:tpu_worker/task:0/device:CPU:0"
  attr {
    key: "T"
    value {
      type: DT_FLOAT
    }
  }
  attr {
    key: "_class"
    value {
      list {
        s: "loc:@input_pipeline_task0/IteratorGetNext"
      }
    }
  }
  attr {
    key: "_output_shapes"
    value {
      list {
        shape {
          dim {
            size: 32
          }
          dim {
            size: 224
          }
          dim {
            size: 224
          }
          dim {
            size: 6
          }
        }
        shape {
          dim {
            size: 32
          }
          dim {
            size: 224
          }
          dim {
            size: 224
          }
          dim {
            size: 6
          }
        }
        shape {
          dim {
            size: 32
          }
          dim {
            size: 224
          }
          dim {
            size: 224
          }
          dim {
            size: 6
          }
        }
        shape {
          dim {
            size: 32
          }
          dim {
            size: 224
          }
          dim {
            size: 224
          }
          dim {
            size: 6
          }
        }
        shape {
          dim {
            size: 32
          }
          dim {
            size: 224
          }
          dim {
            size: 224
          }
          dim {
            size: 6
          }
        }
        shape {
          dim {
            size: 32
          }
          dim {
            size: 224
          }
          dim {
            size: 224
          }
          dim {
            size: 6
          }
        }
        shape {
          dim {
            size: 32
          }
          dim {
            size: 224
          }
          dim {
            size: 224
          }
          dim {
            size: 6
          }
        }
        shape {
          dim {
            size: 32
          }
          dim {
            size: 224
          }
          dim {
            size: 224
          }
          dim {
            size: 6
          }
        }
      }
    }
  }
  attr {
    key: "num_split"
    value {
      i: 8
    }
  }
}
node {
  name: "input_pipeline_task0/Const_1"
  op: "Const"
  device: "/job:tpu_worker/task:0/device:CPU:0"
  attr {
    key: "_class"
    value {
      list {
        s: "loc:@input_pipeline_task0/IteratorGetNext"
      }
    }
  }
  attr {
    key: "_output_shapes"
    value {
      list {
        shape {
        }
      }
    }
  }
  attr {
    key: "dtype"
    value {
      type: DT_INT32
    }
  }
  attr {
    key: "value"
    value {
      tensor {
        dtype: DT_INT32
        tensor_shape {
        }
        int_val: 8
      }
    }
  }
}
node {
  name: "input_pipeline_task0/InfeedQueue/split/1/split_dim"
  op: "Const"
  device: "/job:tpu_worker/task:0/device:CPU:0"
  attr {
    key: "_class"
    value {
      list {
        s: "loc:@input_pipeline_task0/IteratorGetNext"
      }
    }
  }
  attr {
    key: "_output_shapes"
    value {
      list {
        shape {
        }
      }
    }
  }
  attr {
    key: "dtype"
    value {
      type: DT_INT32
    }
  }
  attr {
    key: "value"
    value {
      tensor {
        dtype: DT_INT32
        tensor_shape {
        }
        int_val: 0
      }
    }
  }
}
node {
  name: "input_pipeline_task0/InfeedQueue/split/1"
  op: "Split"
  input: "input_pipeline_task0/InfeedQueue/split/1/split_dim"
  input: "input_pipeline_task0/IteratorGetNext:1"
  device: "/job:tpu_worker/task:0/device:CPU:0"
  attr {
    key: "T"
    value {
      type: DT_FLOAT
    }
  }
  attr {
    key: "_class"
    value {
      list {
        s: "loc:@input_pipeline_task0/IteratorGetNext"
      }
    }
  }
  attr {
    key: "_output_shapes"
    value {
      list {
        shape {
          dim {
            size: 32
          }
          dim {
            size: 1000
          }
        }
        shape {
          dim {
            size: 32
          }
          dim {
            size: 1000
          }
        }
        shape {
          dim {
            size: 32
          }
          dim {
            size: 1000
          }
        }
        shape {
          dim {
            size: 32
          }
          dim {
            size: 1000
          }
        }
        shape {
          dim {
            size: 32
          }
          dim {
            size: 1000
          }
        }
        shape {
          dim {
            size: 32
          }
          dim {
            size: 1000
          }
        }
        shape {
          dim {
            size: 32
          }
          dim {
            size: 1000
          }
        }
        shape {
          dim {
            size: 32
          }
          dim {
            size: 1000
          }
        }
      }
    }
  }
  attr {
    key: "num_split"
    value {
      i: 8
    }
  }
}
node {
  name: "input_pipeline_task0/Const_2"
  op: "Const"
  device: "/job:tpu_worker/task:0/device:CPU:0"
  attr {
    key: "_class"
    value {
      list {
        s: "loc:@input_pipeline_task0/IteratorGetNext"
      }
    }
  }
  attr {
    key: "_output_shapes"
    value {
      list {
        shape {
        }
      }
    }
  }
  attr {
    key: "dtype"
    value {
      type: DT_INT32
    }
  }
  attr {
    key: "value"
    value {
      tensor {
        dtype: DT_INT32
        tensor_shape {
        }
        int_val: 8
      }
    }
  }
}
node {
  name: "input_pipeline_task0/InfeedQueue/split/2/split_dim"
  op: "Const"
  device: "/job:tpu_worker/task:0/device:CPU:0"
  attr {
    key: "_class"
    value {
      list {
        s: "loc:@input_pipeline_task0/IteratorGetNext"
      }
    }
  }
  attr {
    key: "_output_shapes"
    value {
      list {
        shape {
        }
      }
    }
  }
  attr {
    key: "dtype"
    value {
      type: DT_INT32
    }
  }
  attr {
    key: "value"
    value {
      tensor {
        dtype: DT_INT32
        tensor_shape {
        }
        int_val: 0
      }
    }
  }
}
node {
  name: "input_pipeline_task0/InfeedQueue/split/2"
  op: "Split"
  input: "input_pipeline_task0/InfeedQueue/split/2/split_dim"
  input: "input_pipeline_task0/IteratorGetNext:2"
  device: "/job:tpu_worker/task:0/device:CPU:0"
  attr {
    key: "T"
    value {
      type: DT_FLOAT
    }
  }
  attr {
    key: "_class"
    value {
      list {
        s: "loc:@input_pipeline_task0/IteratorGetNext"
      }
    }
  }
  attr {
    key: "_output_shapes"
    value {
      list {
        shape {
          dim {
            size: 32
          }
        }
        shape {
          dim {
            size: 32
          }
        }
        shape {
          dim {
            size: 32
          }
        }
        shape {
          dim {
            size: 32
          }
        }
        shape {
          dim {
            size: 32
          }
        }
        shape {
          dim {
            size: 32
          }
        }
        shape {
          dim {
            size: 32
          }
        }
        shape {
          dim {
            size: 32
          }
        }
      }
    }
  }
  attr {
    key: "num_split"
    value {
      i: 8
    }
  }
}
node {
  name: "input_pipeline_task0/InfeedQueue/enqueue/0"
  op: "InfeedEnqueueTuple"
  input: "input_pipeline_task0/InfeedQueue/split/0"
  input: "input_pipeline_task0/InfeedQueue/split/1"
  input: "input_pipeline_task0/InfeedQueue/split/2"
  device: "/job:tpu_worker/task:0/device:CPU:0"
  attr {
    key: "device_ordinal"
    value {
      i: 0
    }
  }
  attr {
    key: "dtypes"
    value {
      list {
        type: DT_FLOAT
        type: DT_FLOAT
        type: DT_FLOAT
      }
    }
  }
  attr {
    key: "layouts"
    value {
      list {
      }
    }
  }
  attr {
    key: "shapes"
    value {
      list {
        shape {
          dim {
            size: 32
          }
          dim {
            size: 224
          }
          dim {
            size: 224
          }
          dim {
            size: 6
          }
        }
        shape {
          dim {
            size: 32
          }
          dim {
            size: 1000
          }
        }
        shape {
          dim {
            size: 32
          }
        }
      }
    }
  }
}
node {
  name: "input_pipeline_task0/InfeedQueue/enqueue/1"
  op: "InfeedEnqueueTuple"
  input: "input_pipeline_task0/InfeedQueue/split/0:1"
  input: "input_pipeline_task0/InfeedQueue/split/1:1"
  input: "input_pipeline_task0/InfeedQueue/split/2:1"
  device: "/job:tpu_worker/task:0/device:CPU:0"
  attr {
    key: "device_ordinal"
    value {
      i: 1
    }
  }
  attr {
    key: "dtypes"
    value {
      list {
        type: DT_FLOAT
        type: DT_FLOAT
        type: DT_FLOAT
      }
    }
  }
  attr {
    key: "layouts"
    value {
      list {
      }
    }
  }
  attr {
    key: "shapes"
    value {
      list {
        shape {
          dim {
            size: 32
          }
          dim {
            size: 224
          }
          dim {
            size: 224
          }
          dim {
            size: 6
          }
        }
        shape {
          dim {
            size: 32
          }
          dim {
            size: 1000
          }
        }
        shape {
          dim {
            size: 32
          }
        }
      }
    }
  }
}
node {
  name: "input_pipeline_task0/InfeedQueue/enqueue/2"
  op: "InfeedEnqueueTuple"
  input: "input_pipeline_task0/InfeedQueue/split/0:2"
  input: "input_pipeline_task0/InfeedQueue/split/1:2"
  input: "input_pipeline_task0/InfeedQueue/split/2:2"
  device: "/job:tpu_worker/task:0/device:CPU:0"
  attr {
    key: "device_ordinal"
    value {
      i: 2
    }
  }
  attr {
    key: "dtypes"
    value {
      list {
        type: DT_FLOAT
        type: DT_FLOAT
        type: DT_FLOAT
      }
    }
  }
  attr {
    key: "layouts"
    value {
      list {
      }
    }
  }
  attr {
    key: "shapes"
    value {
      list {
        shape {
          dim {
            size: 32
          }
          dim {
            size: 224
          }
          dim {
            size: 224
          }
          dim {
            size: 6
          }
        }
        shape {
          dim {
            size: 32
          }
          dim {
            size: 1000
          }
        }
        shape {
          dim {
            size: 32
          }
        }
      }
    }
  }
}
node {
  name: "input_pipeline_task0/InfeedQueue/enqueue/3"
  op: "InfeedEnqueueTuple"
  input: "input_pipeline_task0/InfeedQueue/split/0:3"
  input: "input_pipeline_task0/InfeedQueue/split/1:3"
  input: "input_pipeline_task0/InfeedQueue/split/2:3"
  device: "/job:tpu_worker/task:0/device:CPU:0"
  attr {
    key: "device_ordinal"
    value {
      i: 3
    }
  }
  attr {
    key: "dtypes"
    value {
      list {
        type: DT_FLOAT
        type: DT_FLOAT
        type: DT_FLOAT
      }
    }
  }
  attr {
    key: "layouts"
    value {
      list {
      }
    }
  }
  attr {
    key: "shapes"
    value {
      list {
        shape {
          dim {
            size: 32
          }
          dim {
            size: 224
          }
          dim {
            size: 224
          }
          dim {
            size: 6
          }
        }
        shape {
          dim {
            size: 32
          }
          dim {
            size: 1000
          }
        }
        shape {
          dim {
            size: 32
          }
        }
      }
    }
  }
}
node {
  name: "input_pipeline_task0/InfeedQueue/enqueue/4"
  op: "InfeedEnqueueTuple"
  input: "input_pipeline_task0/InfeedQueue/split/0:4"
  input: "input_pipeline_task0/InfeedQueue/split/1:4"
  input: "input_pipeline_task0/InfeedQueue/split/2:4"
  device: "/job:tpu_worker/task:0/device:CPU:0"
  attr {
    key: "device_ordinal"
    value {
      i: 4
    }
  }
  attr {
    key: "dtypes"
    value {
      list {
        type: DT_FLOAT
        type: DT_FLOAT
        type: DT_FLOAT
      }
    }
  }
  attr {
    key: "layouts"
    value {
      list {
      }
    }
  }
  attr {
    key: "shapes"
    value {
      list {
        shape {
          dim {
            size: 32
          }
          dim {
            size: 224
          }
          dim {
            size: 224
          }
          dim {
            size: 6
          }
        }
        shape {
          dim {
            size: 32
          }
          dim {
            size: 1000
          }
        }
        shape {
          dim {
            size: 32
          }
        }
      }
    }
  }
}
node {
  name: "input_pipeline_task0/InfeedQueue/enqueue/5"
  op: "InfeedEnqueueTuple"
  input: "input_pipeline_task0/InfeedQueue/split/0:5"
  input: "input_pipeline_task0/InfeedQueue/split/1:5"
  input: "input_pipeline_task0/InfeedQueue/split/2:5"
  device: "/job:tpu_worker/task:0/device:CPU:0"
  attr {
    key: "device_ordinal"
    value {
      i: 5
    }
  }
  attr {
    key: "dtypes"
    value {
      list {
        type: DT_FLOAT
        type: DT_FLOAT
        type: DT_FLOAT
      }
    }
  }
  attr {
    key: "layouts"
    value {
      list {
      }
    }
  }
  attr {
    key: "shapes"
    value {
      list {
        shape {
          dim {
            size: 32
          }
          dim {
            size: 224
          }
          dim {
            size: 224
          }
          dim {
            size: 6
          }
        }
        shape {
          dim {
            size: 32
          }
          dim {
            size: 1000
          }
        }
        shape {
          dim {
            size: 32
          }
        }
      }
    }
  }
}
node {
  name: "input_pipeline_task0/InfeedQueue/enqueue/6"
  op: "InfeedEnqueueTuple"
  input: "input_pipeline_task0/InfeedQueue/split/0:6"
  input: "input_pipeline_task0/InfeedQueue/split/1:6"
  input: "input_pipeline_task0/InfeedQueue/split/2:6"
  device: "/job:tpu_worker/task:0/device:CPU:0"
  attr {
    key: "device_ordinal"
    value {
      i: 6
    }
  }
  attr {
    key: "dtypes"
    value {
      list {
        type: DT_FLOAT
        type: DT_FLOAT
        type: DT_FLOAT
      }
    }
  }
  attr {
    key: "layouts"
    value {
      list {
      }
    }
  }
  attr {
    key: "shapes"
    value {
      list {
        shape {
          dim {
            size: 32
          }
          dim {
            size: 224
          }
          dim {
            size: 224
          }
          dim {
            size: 6
          }
        }
        shape {
          dim {
            size: 32
          }
          dim {
            size: 1000
          }
        }
        shape {
          dim {
            size: 32
          }
        }
      }
    }
  }
}
node {
  name: "input_pipeline_task0/InfeedQueue/enqueue/7"
  op: "InfeedEnqueueTuple"
  input: "input_pipeline_task0/InfeedQueue/split/0:7"
  input: "input_pipeline_task0/InfeedQueue/split/1:7"
  input: "input_pipeline_task0/InfeedQueue/split/2:7"
  device: "/job:tpu_worker/task:0/device:CPU:0"
  attr {
    key: "device_ordinal"
    value {
      i: 7
    }
  }
  attr {
    key: "dtypes"
    value {
      list {
        type: DT_FLOAT
        type: DT_FLOAT
        type: DT_FLOAT
      }
    }
  }
  attr {
    key: "layouts"
    value {
      list {
      }
    }
  }
  attr {
    key: "shapes"
    value {
      list {
        shape {
          dim {
            size: 32
          }
          dim {
            size: 224
          }
          dim {
            size: 224
          }
          dim {
            size: 6
          }
        }
        shape {
          dim {
            size: 32
          }
          dim {
            size: 1000
          }
        }
        shape {
          dim {
            size: 32
          }
        }
      }
    }
  }
}
node {
  name: "input_pipeline_task1/normalize_element/component_0"
  op: "Const"
  device: "/job:tpu_worker/task:1/device:CPU:0"
  attr {
    key: "_output_shapes"
    value {
      list {
        shape {
          dim {
            size: 1024
          }
        }
      }
    }
  }
  attr {
    key: "dtype"
    value {
      type: DT_STRING
    }
  }
  attr {
    key: "value"
    value {
      tensor {
        dtype: DT_STRING
        tensor_shape {
          dim {
            size: 1024
          }
        }
        string_val: "…"
        string_val: "…"
        string_val: "…"
        string_val: "…"
        string_val: "…"
        string_val: "…"
        string_val: "…"
        string_val: "…"
        string_val: "…"
        string_val: "…"
        string_val: "…"
        string_val: "…"
        string_val: "…"
        string_val: "…"
        string_val: "…"
        string_val: "…"
        string_val: "…"
        string_val: "…"
        string_val: "…"
        string_val: "…"
        string_val: "…"
        string_val: "…"
        string_val: "…"
        string_val: "…"
        string_val: "…"
        string_val: "…"
        string_val: "…"
        string_val: "…"
        string_val: "…"
        string_val: "…"
        string_val: "…"
        string_val: "…"
        string_val: "…"
        string_val: "…"
        string_val: "…"
        string_val: "…"
        string_val: "…"
        string_val: "…"
        string_val: "…"
        string_val: "…"
        string_val: "…"
        string_val: "…"
        string_val: "…"
        string_val: "…"
        string_val: "…"
        string_val: "…"
        string_val: "…"
        string_val: "…"
        string_val: "…"
        string_val: "…"
        string_val: "…"
        string_val: "…"
        string_val: "…"
        string_val: "…"
        string_val: "…"
        string_val: "…"
        string_val: "…"
        string_val: "…"
        string_val: "…"
        string_val: "…"
        string_val: "…"
        string_val: "…"
        string_val: "…"
        string_val: "…"
        string_val: "…"
        string_val: "…"
        string_val: "…"
        string_val: "…"
        string_val: "…"
        string_val: "…"
        string_val: "…"
        string_val: "…"
        string_val: "…"
        string_val: "…"
        string_val: "…"
        string_val: "…"
        string_val: "…"
        string_val: "…"
        string_val: "…"
        string_val: "…"
        string_val: "…"
        string_val: "…"
        string_val: "…"
        string_val: "…"
        string_val: "…"
        string_val: "…"
        string_val: "…"
        string_val: "…"
        string_val: "…"
        string_val: "…"
        string_val: "…"
        string_val: "…"
        string_val: "…"
        string_val: "…"
        string_val: "…"
        string_val: "…"
        string_val: "…"
        string_val: "…"
        string_val: "…"
        string_val: "…"
        string_val: "…"
        string_val: "…"
        string_val: "…"
        string_val: "…"
        string_val: "…"
        string_val: "…"
        string_val: "…"
        string_val: "…"
        string_val: "…"
        string_val: "…"
        string_val: "…"
        string_val: "…"
        string_val: "…"
        string_val: "…"
        string_val: "…"
        string_val: "…"
        string_val: "…"
        string_val: "…"
        string_val: "…"
        string_val: "…"
        string_val: "…"
        string_val: "…"
        string_val: "…"
        string_val: "…"
        string_val: "…"
        string_val: "…"
        string_val: "…"
        string_val: "…"
        string_val: "…"
        string_val: "…"
        string_val: "…"
        string_val: "…"
        string_val: "…"
        string_val: "…"
        string_val: "…"
        string_val: "…"
        string_val: "…"
        string_val: "…"
        string_val: "…"
        string_val: "…"
        string_val: "…"
        string_val: "…"
        string_val: "…"
        string_val: "…"
        string_val: "…"
        string_val: "…"
        string_val: "…"
        string_val: "…"
        string_val: "…"
        string_val: "…"
        string_val: "…"
        string_val: "…"
        string_val: "…"
        string_val: "…"
        string_val: "…"
        string_val: "…"
        string_val: "…"
        string_val: "…"
        string_val: "…"
        string_val: "…"
        string_val: "…"
        string_val: "…"
        string_val: "…"
        string_val: "…"
        string_val: "…"
        string_val: "…"
        string_val: "…"
        string_val: "…"
        string_val: "…"
        string_val: "…"
        string_val: "…"
        string_val: "…"
        string_val: "…"
        string_val: "…"
        string_val: "…"
        string_val: "…"
        string_val: "…"
        string_val: "…"
        string_val: "…"
        string_val: "…"
        string_val: "…"
        string_val: "…"
        string_val: "…"
        string_val: "…"
        string_val: "…"
        string_val: "…"
        string_val: "…"
        string_val: "…"
        string_val: "…"
        string_val: "…"
        string_val: "…"
        string_val: "…"
        string_val: "…"
        string_val: "…"
        string_val: "…"
        string_val: "…"
        string_val: "…"
        string_val: "…"
        string_val: "…"
        string_val: "…"
        string_val: "…"
        string_val: "…"
        string_val: "…"
        string_val: "…"
        string_val: "…"
        string_val: "…"
        string_val: "…"
        string_val: "…"
        string_val: "…"
        string_val: "…"
        string_val: "…"
        string_val: "…"
        string_val: "…"
        string_val: "…"
        string_val: "…"
        string_val: "…"
        string_val: "…"
        string_val: "…"
        string_val: "…"
        string_val: "…"
        string_val: "…"
        string_val: "…"
        string_val: "…"
        string_val: "…"
        string_val: "…"
        string_val: "…"
        string_val: "…"
        string_val: "…"
        string_val: "…"
        string_val: "…"
        string_val: "…"
        string_val: "…"
        string_val: "…"
        string_val: "…"
        string_val: "…"
        string_val: "…"
        string_val: "…"
        string_val: "…"
        string_val: "…"
        string_val: "…"
        string_val: "…"
        string_val: "…"
        string_val: "…"
        string_val: "…"
        string_val: "…"
        string_val: "…"
        string_val: "…"
        string_val: "…"
        string_val: "…"
        string_val: "…"
        string_val: "…"
        string_val: "…"
        string_val: "…"
        string_val: "…"
        string_val: "…"
        string_val: "…"
        string_val: "…"
        string_val: "…"
        string_val: "…"
        string_val: "…"
        string_val: "…"
        string_val: "…"
        string_val: "…"
        string_val: "…"
        string_val: "…"
        string_val: "…"
        string_val: "…"
        string_val: "…"
        string_val: "…"
        string_val: "…"
        string_val: "…"
        string_val: "…"
        string_val: "…"
        string_val: "…"
        string_val: "…"
        string_val: "…"
        string_val: "…"
        string_val: "…"
        string_val: "…"
        string_val: "…"
        string_val: "…"
        string_val: "…"
        string_val: "…"
        string_val: "…"
        string_val: "…"
        string_val: "…"
        string_val: "…"
        string_val: "…"
        string_val: "…"
        string_val: "…"
        string_val: "…"
        string_val: "…"
        string_val: "…"
        string_val: "…"
        string_val: "…"
        string_val: "…"
        string_val: "…"
        string_val: "…"
        string_val: "…"
        string_val: "…"
        string_val: "…"
        string_val: "…"
        string_val: "…"
        string_val: "…"
        string_val: "…"
        string_val: "…"
        string_val: "…"
        string_val: "…"
        string_val: "…"
        string_val: "…"
        string_val: "…"
        string_val: "…"
        string_val: "…"
        string_val: "…"
        string_val: "…"
        string_val: "…"
        string_val: "…"
        string_val: "…"
        string_val: "…"
        string_val: "…"
        string_val: "…"
        string_val: "…"
        string_val: "…"
        string_val: "…"
        string_val: "…"
        string_val: "…"
        string_val: "…"
        string_val: "…"
        string_val: "…"
        string_val: "…"
        string_val: "…"
        string_val: "…"
        string_val: "…"
        string_val: "…"
        string_val: "…"
        string_val: "…"
        string_val: "…"
        string_val: "…"
        string_val: "…"
        string_val: "…"
        string_val: "…"
        string_val: "…"
        string_val: "…"
        string_val: "…"
        string_val: "…"
        string_val: "…"
        string_val: "…"
        string_val: "…"
        string_val: "…"
        string_val: "…"
        string_val: "…"
        string_val: "…"
        string_val: "…"
        string_val: "…"
        string_val: "…"
        string_val: "…"
        string_val: "…"
        string_val: "…"
        string_val: "…"
        string_val: "…"
        string_val: "…"
        string_val: "…"
        string_val: "…"
        string_val: "…"
        string_val: "…"
        string_val: "…"
        string_val: "…"
        string_val: "…"
        string_val: "…"
        string_val: "…"
        string_val: "…"
        string_val: "…"
        string_val: "…"
        string_val: "…"
        string_val: "…"
        string_val: "…"
        string_val: "…"
        string_val: "…"
        string_val: "…"
        string_val: "…"
        string_val: "…"
        string_val: "…"
        string_val: "…"
        string_val: "…"
        string_val: "…"
        string_val: "…"
        string_val: "…"
        string_val: "…"
        string_val: "…"
        string_val: "…"
        string_val: "…"
        string_val: "…"
        string_val: "…"
        string_val: "…"
        string_val: "…"
        string_val: "…"
        string_val: "…"
        string_val: "…"
        string_val: "…"
        string_val: "…"
        string_val: "…"
        string_val: "…"
        string_val: "…"
        string_val: "…"
        string_val: "…"
        string_val: "…"
        string_val: "…"
        string_val: "…"
        string_val: "…"
        string_val: "…"
        string_val: "…"
        string_val: "…"
        string_val: "…"
        string_val: "…"
        string_val: "…"
        string_val: "…"
        string_val: "…"
        string_val: "…"
        string_val: "…"
        string_val: "…"
        string_val: "…"
        string_val: "…"
        string_val: "…"
        string_val: "…"
        string_val: "…"
        string_val: "…"
        string_val: "…"
        string_val: "…"
        string_val: "…"
        string_val: "…"
        string_val: "…"
        string_val: "…"
        string_val: "…"
        string_val: "…"
        string_val: "…"
        string_val: "…"
        string_val: "…"
        string_val: "…"
        string_val: "…"
        string_val: "…"
        string_val: "…"
        string_val: "…"
        string_val: "…"
        string_val: "…"
        string_val: "…"
        string_val: "…"
        string_val: "…"
        string_val: "…"
        string_val: "…"
        string_val: "…"
        string_val: "…"
        string_val: "…"
        string_val: "…"
        string_val: "…"
        string_val: "…"
        string_val: "…"
        string_val: "…"
        string_val: "…"
        string_val: "…"
        string_val: "…"
        string_val: "…"
        string_val: "…"
        string_val: "…"
        string_val: "…"
        string_val: "…"
        string_val: "…"
        string_val: "…"
        string_val: "…"
        string_val: "…"
        string_val: "…"
        string_val: "…"
        string_val: "…"
        string_val: "…"
        string_val: "…"
        string_val: "…"
        string_val: "…"
        string_val: "…"
        string_val: "…"
        string_val: "…"
        string_val: "…"
        string_val: "…"
        string_val: "…"
        string_val: "…"
        string_val: "…"
        string_val: "…"
        string_val: "…"
        string_val: "…"
        string_val: "…"
        string_val: "…"
        string_val: "…"
        string_val: "…"
        string_val: "…"
        string_val: "…"
        string_val: "…"
        string_val: "…"
        string_val: "…"
        string_val: "…"
        string_val: "…"
        string_val: "…"
        string_val: "…"
        string_val: "…"
        string_val: "…"
        string_val: "…"
        string_val: "…"
        string_val: "…"
        string_val: "…"
        string_val: "…"
        string_val: "…"
        string_val: "…"
        string_val: "…"
        string_val: "…"
        string_val: "…"
        string_val: "…"
        string_val: "…"
        string_val: "…"
        string_val: "…"
        string_val: "…"
        string_val: "…"
        string_val: "…"
        string_val: "…"
        string_val: "…"
        string_val: "…"
        string_val: "…"
        string_val: "…"
        string_val: "…"
        string_val: "…"
        string_val: "…"
        string_val: "…"
        string_val: "…"
        string_val: "…"
        string_val: "…"
        string_val: "…"
        string_val: "…"
        string_val: "…"
        string_val: "…"
        string_val: "…"
        string_val: "…"
        string_val: "…"
        string_val: "…"
        string_val: "…"
        string_val: "…"
        string_val: "…"
        string_val: "…"
        string_val: "…"
        string_val: "…"
        string_val: "…"
        string_val: "…"
        string_val: "…"
        string_val: "…"
        string_val: "…"
        string_val: "…"
        string_val: "…"
        string_val: "…"
        string_val: "…"
        string_val: "…"
        string_val: "…"
        string_val: "…"
        string_val: "…"
        string_val: "…"
        string_val: "…"
        string_val: "…"
        string_val: "…"
        string_val: "…"
        string_val: "…"
        string_val: "…"
        string_val: "…"
        string_val: "…"
        string_val: "…"
        string_val: "…"
        string_val: "…"
        string_val: "…"
        string_val: "…"
        string_val: "…"
        string_val: "…"
        string_val: "…"
        string_val: "…"
        string_val: "…"
        string_val: "…"
        string_val: "…"
        string_val: "…"
        string_val: "…"
        string_val: "…"
        string_val: "…"
        string_val: "…"
        string_val: "…"
        string_val: "…"
        string_val: "…"
        string_val: "…"
        string_val: "…"
        string_val: "…"
        string_val: "…"
        string_val: "…"
        string_val: "…"
        string_val: "…"
        string_val: "…"
        string_val: "…"
        string_val: "…"
        string_val: "…"
        string_val: "…"
        string_val: "…"
        string_val: "…"
        string_val: "…"
        string_val: "…"
        string_val: "…"
        string_val: "…"
        string_val: "…"
        string_val: "…"
        string_val: "…"
        string_val: "…"
        string_val: "…"
        string_val: "…"
        string_val: "…"
        string_val: "…"
        string_val: "…"
        string_val: "…"
        string_val: "…"
        string_val: "…"
        string_val: "…"
        string_val: "…"
        string_val: "…"
        string_val: "…"
        string_val: "…"
        string_val: "…"
        string_val: "…"
        string_val: "…"
        string_val: "…"
        string_val: "…"
        string_val: "…"
        string_val: "…"
        string_val: "…"
        string_val: "…"
        string_val: "…"
        string_val: "…"
        string_val: "…"
        string_val: "…"
        string_val: "…"
        string_val: "…"
        string_val: "…"
        string_val: "…"
        string_val: "…"
        string_val: "…"
        string_val: "…"
        string_val: "…"
        string_val: "…"
        string_val: "…"
        string_val: "…"
        string_val: "…"
        string_val: "…"
        string_val: "…"
        string_val: "…"
        string_val: "…"
        string_val: "…"
        string_val: "…"
        string_val: "…"
        string_val: "…"
        string_val: "…"
        string_val: "…"
        string_val: "…"
        string_val: "…"
        string_val: "…"
        string_val: "…"
        string_val: "…"
        string_val: "…"
        string_val: "…"
        string_val: "…"
        string_val: "…"
        string_val: "…"
        string_val: "…"
        string_val: "…"
        string_val: "…"
        string_val: "…"
        string_val: "…"
        string_val: "…"
        string_val: "…"
        string_val: "…"
        string_val: "…"
        string_val: "…"
        string_val: "…"
        string_val: "…"
        string_val: "…"
        string_val: "…"
        string_val: "…"
        string_val: "…"
        string_val: "…"
        string_val: "…"
        string_val: "…"
        string_val: "…"
        string_val: "…"
        string_val: "…"
        string_val: "…"
        string_val: "…"
        string_val: "…"
        string_val: "…"
        string_val: "…"
        string_val: "…"
        string_val: "…"
        string_val: "…"
        string_val: "…"
        string_val: "…"
        string_val: "…"
        string_val: "…"
        string_val: "…"
        string_val: "…"
        string_val: "…"
        string_val: "…"
        string_val: "…"
        string_val: "…"
        string_val: "…"
        string_val: "…"
        string_val: "…"
        string_val: "…"
        string_val: "…"
        string_val: "…"
        string_val: "…"
        string_val: "…"
        string_val: "…"
        string_val: "…"
        string_val: "…"
        string_val: "…"
        string_val: "…"
        string_val: "…"
        string_val: "…"
        string_val: "…"
        string_val: "…"
        string_val: "…"
        string_val: "…"
        string_val: "…"
        string_val: "…"
        string_val: "…"
        string_val: "…"
        string_val: "…"
        string_val: "…"
        string_val: "…"
        string_val: "…"
        string_val: "…"
        string_val: "…"
        string_val: "…"
        string_val: "…"
        string_val: "…"
        string_val: "…"
        string_val: "…"
        string_val: "…"
        string_val: "…"
        string_val: "…"
        string_val: "…"
        string_val: "…"
        string_val: "…"
        string_val: "…"
        string_val: "…"
        string_val: "…"
        string_val: "…"
        string_val: "…"
        string_val: "…"
        string_val: "…"
        string_val: "…"
        string_val: "…"
        string_val: "…"
        string_val: "…"
        string_val: "…"
        string_val: "…"
        string_val: "…"
        string_val: "…"
        string_val: "…"
        string_val: "…"
        string_val: "…"
        string_val: "…"
        string_val: "…"
        string_val: "…"
        string_val: "…"
        string_val: "…"
        string_val: "…"
        string_val: "…"
        string_val: "…"
        string_val: "…"
        string_val: "…"
        string_val: "…"
        string_val: "…"
        string_val: "…"
        string_val: "…"
        string_val: "…"
        string_val: "…"
        string_val: "…"
        string_val: "…"
        string_val: "…"
        string_val: "…"
        string_val: "…"
        string_val: "…"
        string_val: "…"
        string_val: "…"
        string_val: "…"
        string_val: "…"
        string_val: "…"
        string_val: "…"
        string_val: "…"
        string_val: "…"
        string_val: "…"
        string_val: "…"
        string_val: "…"
        string_val: "…"
        string_val: "…"
        string_val: "…"
        string_val: "…"
        string_val: "…"
        string_val: "…"
        string_val: "…"
        string_val: "…"
        string_val: "…"
        string_val: "…"
        string_val: "…"
        string_val: "…"
        string_val: "…"
        string_val: "…"
        string_val: "…"
        string_val: "…"
        string_val: "…"
        string_val: "…"
        string_val: "…"
        string_val: "…"
        string_val: "…"
        string_val: "…"
        string_val: "…"
        string_val: "…"
        string_val: "…"
        string_val: "…"
        string_val: "…"
        string_val: "…"
        string_val: "…"
        string_val: "…"
        string_val: "…"
        string_val: "…"
        string_val: "…"
        string_val: "…"
        string_val: "…"
        string_val: "…"
        string_val: "…"
        string_val: "…"
        string_val: "…"
        string_val: "…"
        string_val: "…"
        string_val: "…"
        string_val: "…"
        string_val: "…"
        string_val: "…"
        string_val: "…"
        string_val: "…"
        string_val: "…"
        string_val: "…"
        string_val: "…"
        string_val: "…"
        string_val: "…"
        string_val: "…"
        string_val: "…"
        string_val: "…"
        string_val: "…"
        string_val: "…"
        string_val: "…"
        string_val: "…"
        string_val: "…"
        string_val: "…"
        string_val: "…"
        string_val: "…"
        string_val: "…"
        string_val: "…"
        string_val: "…"
        string_val: "…"
        string_val: "…"
        string_val: "…"
        string_val: "…"
        string_val: "…"
        string_val: "…"
        string_val: "…"
        string_val: "…"
        string_val: "…"
        string_val: "…"
        string_val: "…"
        string_val: "…"
        string_val: "…"
        string_val: "…"
        string_val: "…"
        string_val: "…"
        string_val: "…"
        string_val: "…"
        string_val: "…"
        string_val: "…"
        string_val: "…"
        string_val: "…"
        string_val: "…"
        string_val: "…"
        string_val: "…"
        string_val: "…"
        string_val: "…"
        string_val: "…"
        string_val: "…"
        string_val: "…"
        string_val: "…"
        string_val: "…"
        string_val: "…"
        string_val: "…"
        string_val: "…"
        string_val: "…"
        string_val: "…"
        string_val: "…"
        string_val: "…"
        string_val: "…"
        string_val: "…"
        string_val: "…"
        string_val: "…"
        string_val: "…"
        string_val: "…"
        string_val: "…"
        string_val: "…"
        string_val: "…"
        string_val: "…"
        string_val: "…"
        string_val: "…"
        string_val: "…"
        string_val: "…"
        string_val: "…"
        string_val: "…"
        string_val: "…"
        string_val: "…"
        string_val: "…"
        string_val: "…"
        string_val: "…"
        string_val: "…"
        string_val: "…"
        string_val: "…"
        string_val: "…"
        string_val: "…"
        string_val: "…"
        string_val: "…"
        string_val: "…"
        string_val: "…"
        string_val: "…"
        string_val: "…"
        string_val: "…"
        string_val: "…"
        string_val: "…"
        string_val: "…"
        string_val: "…"
        string_val: "…"
        string_val: "…"
        string_val: "…"
        string_val: "…"
        string_val: "…"
        string_val: "…"
        string_val: "…"
        string_val: "…"
        string_val: "…"
        string_val: "…"
        string_val: "…"
        string_val: "…"
        string_val: "…"
        string_val: "…"
        string_val: "…"
        string_val: "…"
        string_val: "…"
        string_val: "…"
        string_val: "…"
        string_val: "…"
        string_val: "…"
        string_val: "…"
        string_val: "…"
        string_val: "…"
        string_val: "…"
        string_val: "…"
        string_val: "…"
        string_val: "…"
        string_val: "…"
        string_val: "…"
        string_val: "…"
        string_val: "…"
        string_val: "…"
        string_val: "…"
        string_val: "…"
        string_val: "…"
        string_val: "…"
        string_val: "…"
        string_val: "…"
        string_val: "…"
        string_val: "…"
        string_val: "…"
        string_val: "…"
        string_val: "…"
        string_val: "…"
        string_val: "…"
        string_val: "…"
        string_val: "…"
        string_val: "…"
        string_val: "…"
        string_val: "…"
        string_val: "…"
        string_val: "…"
        string_val: "…"
        string_val: "…"
        string_val: "…"
        string_val: "…"
        string_val: "…"
        string_val: "…"
        string_val: "…"
        string_val: "…"
        string_val: "…"
        string_val: "…"
        string_val: "…"
        string_val: "…"
        string_val: "…"
        string_val: "…"
        string_val: "…"
        string_val: "…"
        string_val: "…"
        string_val: "…"
        string_val: "…"
        string_val: "…"
        string_val: "…"
        string_val: "…"
        string_val: "…"
        string_val: "…"
        string_val: "…"
        string_val: "…"
        string_val: "…"
        string_val: "…"
        string_val: "…"
        string_val: "…"
        string_val: "…"
      }
    }
  }
}
node {
  name: "input_pipeline_task1/normalize_element/component_1"
  op: "Const"
  device: "/job:tpu_worker/task:1/device:CPU:0"
  attr {
    key: "_output_shapes"
    value {
      list {
        shape {
          dim {
            size: 1024
          }
        }
      }
    }
  }
  attr {
    key: "dtype"
    value {
      type: DT_INT64
    }
  }
  attr {
    key: "value"
    value {
      tensor {
        dtype: DT_INT64
        tensor_shape {
          dim {
            size: 1024
          }
        }
        tensor_content: "…"
      }
    }
  }
}
node {
  name: "input_pipeline_task1/normalize_element/component_2"
  op: "Const"
  device: "/job:tpu_worker/task:1/device:CPU:0"
  attr {
    key: "_output_shapes"
    value {
      list {
        shape {
          dim {
            size: 1024
          }
        }
      }
    }
  }
  attr {
    key: "dtype"
    value {
      type: DT_INT64
    }
  }
  attr {
    key: "value"
    value {
      tensor {
        dtype: DT_INT64
        tensor_shape {
          dim {
            size: 1024
          }
        }
        tensor_content: "…"
      }
    }
  }
}
node {
  name: "input_pipeline_task1/TensorSliceDataset"
  op: "TensorSliceDataset"
  input: "input_pipeline_task1/normalize_element/component_0"
  input: "input_pipeline_task1/normalize_element/component_1"
  input: "input_pipeline_task1/normalize_element/component_2"
  device: "/job:tpu_worker/task:1/device:CPU:0"
  attr {
    key: "Toutput_types"
    value {
      list {
        type: DT_STRING
        type: DT_INT64
        type: DT_INT64
      }
    }
  }
  attr {
    key: "_output_shapes"
    value {
      list {
        shape {
        }
      }
    }
  }
  attr {
    key: "output_shapes"
    value {
      list {
        shape {
        }
        shape {
        }
        shape {
        }
      }
    }
  }
}
node {
  name: "input_pipeline_task1/buffer_size"
  op: "Const"
  device: "/job:tpu_worker/task:1/device:CPU:0"
  attr {
    key: "_output_shapes"
    value {
      list {
        shape {
        }
      }
    }
  }
  attr {
    key: "dtype"
    value {
      type: DT_INT64
    }
  }
  attr {
    key: "value"
    value {
      tensor {
        dtype: DT_INT64
        tensor_shape {
        }
        int64_val: 1024
      }
    }
  }
}
node {
  name: "input_pipeline_task1/seed"
  op: "Const"
  device: "/job:tpu_worker/task:1/device:CPU:0"
  attr {
    key: "_output_shapes"
    value {
      list {
        shape {
        }
      }
    }
  }
  attr {
    key: "dtype"
    value {
      type: DT_INT64
    }
  }
  attr {
    key: "value"
    value {
      tensor {
        dtype: DT_INT64
        tensor_shape {
        }
        int64_val: 0
      }
    }
  }
}
node {
  name: "input_pipeline_task1/seed2"
  op: "Const"
  device: "/job:tpu_worker/task:1/device:CPU:0"
  attr {
    key: "_output_shapes"
    value {
      list {
        shape {
        }
      }
    }
  }
  attr {
    key: "dtype"
    value {
      type: DT_INT64
    }
  }
  attr {
    key: "value"
    value {
      tensor {
        dtype: DT_INT64
        tensor_shape {
        }
        int64_val: 0
      }
    }
  }
}
node {
  name: "input_pipeline_task1/ShuffleDataset"
  op: "ShuffleDataset"
  input: "input_pipeline_task1/TensorSliceDataset"
  input: "input_pipeline_task1/buffer_size"
  input: "input_pipeline_task1/seed"
  input: "input_pipeline_task1/seed2"
  device: "/job:tpu_worker/task:1/device:CPU:0"
  attr {
    key: "_output_shapes"
    value {
      list {
        shape {
        }
      }
    }
  }
  attr {
    key: "output_shapes"
    value {
      list {
        shape {
        }
        shape {
        }
        shape {
        }
      }
    }
  }
  attr {
    key: "output_types"
    value {
      list {
        type: DT_STRING
        type: DT_INT64
        type: DT_INT64
      }
    }
  }
  attr {
    key: "reshuffle_each_iteration"
    value {
      b: true
    }
  }
}
node {
  name: "input_pipeline_task1/cycle_length"
  op: "Const"
  device: "/job:tpu_worker/task:1/device:CPU:0"
  attr {
    key: "_output_shapes"
    value {
      list {
        shape {
        }
      }
    }
  }
  attr {
    key: "dtype"
    value {
      type: DT_INT64
    }
  }
  attr {
    key: "value"
    value {
      tensor {
        dtype: DT_INT64
        tensor_shape {
        }
        int64_val: 16
      }
    }
  }
}
node {
  name: "input_pipeline_task1/block_length"
  op: "Const"
  device: "/job:tpu_worker/task:1/device:CPU:0"
  attr {
    key: "_output_shapes"
    value {
      list {
        shape {
        }
      }
    }
  }
  attr {
    key: "dtype"
    value {
      type: DT_INT64
    }
  }
  attr {
    key: "value"
    value {
      tensor {
        dtype: DT_INT64
        tensor_shape {
        }
        int64_val: 16
      }
    }
  }
}
node {
  name: "input_pipeline_task1/buffer_output_elements"
  op: "Const"
  device: "/job:tpu_worker/task:1/device:CPU:0"
  attr {
    key: "_output_shapes"
    value {
      list {
        shape {
        }
      }
    }
  }
  attr {
    key: "dtype"
    value {
      type: DT_INT64
    }
  }
  attr {
    key: "value"
    value {
      tensor {
        dtype: DT_INT64
        tensor_shape {
        }
        int64_val: -1
      }
    }
  }
}
node {
  name: "input_pipeline_task1/prefetch_input_elements"
  op: "Const"
  device: "/job:tpu_worker/task:1/device:CPU:0"
  attr {
    key: "_output_shapes"
    value {
      list {
        shape {
        }
      }
    }
  }
  attr {
    key: "dtype"
    value {
      type: DT_INT64
    }
  }
  attr {
    key: "value"
    value {
      tensor {
        dtype: DT_INT64
        tensor_shape {
        }
        int64_val: -1
      }
    }
  }
}
node {
  name: "input_pipeline_task1/num_parallel_calls"
  op: "Const"
  device: "/job:tpu_worker/task:1/device:CPU:0"
  attr {
    key: "_output_shapes"
    value {
      list {
        shape {
        }
      }
    }
  }
  attr {
    key: "dtype"
    value {
      type: DT_INT64
    }
  }
  attr {
    key: "value"
    value {
      tensor {
        dtype: DT_INT64
        tensor_shape {
        }
        int64_val: -1
      }
    }
  }
}
node {
  name: "input_pipeline_task1/ParallelInterleaveDatasetV4"
  op: "ParallelInterleaveDatasetV4"
  input: "input_pipeline_task1/ShuffleDataset"
  input: "input_pipeline_task1/cycle_length"
  input: "input_pipeline_task1/block_length"
  input: "input_pipeline_task1/buffer_output_elements"
  input: "input_pipeline_task1/prefetch_input_elements"
  input: "input_pipeline_task1/num_parallel_calls"
  device: "/job:tpu_worker/task:1/device:CPU:0"
  attr {
    key: "Targuments"
    value {
      list {
      }
    }
  }
  attr {
    key: "_output_shapes"
    value {
      list {
        shape {
        }
      }
    }
  }
  attr {
    key: "deterministic"
    value {
      s: "default"
    }
  }
  attr {
    key: "f"
    value {
      func {
        name: "__inference_Dataset_interleave_classfunctools.partial_1459"
        attr {
          key: "_tf_data_function"
          value {
            b: true
          }
        }
      }
    }
  }
  attr {
    key: "output_shapes"
    value {
      list {
        shape {
        }
      }
    }
  }
  attr {
    key: "output_types"
    value {
      list {
        type: DT_STRING
      }
    }
  }
}
node {
  name: "input_pipeline_task1/expected_cardinality"
  op: "Const"
  device: "/job:tpu_worker/task:1/device:CPU:0"
  attr {
    key: "_output_shapes"
    value {
      list {
        shape {
        }
      }
    }
  }
  attr {
    key: "dtype"
    value {
      type: DT_INT64
    }
  }
  attr {
    key: "value"
    value {
      tensor {
        dtype: DT_INT64
        tensor_shape {
        }
        int64_val: 1281167
      }
    }
  }
}
node {
  name: "input_pipeline_task1/AssertCardinalityDataset"
  op: "AssertCardinalityDataset"
  input: "input_pipeline_task1/ParallelInterleaveDatasetV4"
  input: "input_pipeline_task1/expected_cardinality"
  device: "/job:tpu_worker/task:1/device:CPU:0"
  attr {
    key: "_output_shapes"
    value {
      list {
        shape {
        }
      }
    }
  }
  attr {
    key: "output_shapes"
    value {
      list {
        shape {
        }
      }
    }
  }
  attr {
    key: "output_types"
    value {
      list {
        type: DT_STRING
      }
    }
  }
}
node {
  name: "input_pipeline_task1/num_parallel_calls_1"
  op: "Const"
  device: "/job:tpu_worker/task:1/device:CPU:0"
  attr {
    key: "_output_shapes"
    value {
      list {
        shape {
        }
      }
    }
  }
  attr {
    key: "dtype"
    value {
      type: DT_INT64
    }
  }
  attr {
    key: "value"
    value {
      tensor {
        dtype: DT_INT64
        tensor_shape {
        }
        int64_val: -1
      }
    }
  }
}
node {
  name: "input_pipeline_task1/ParallelMapDatasetV2"
  op: "ParallelMapDatasetV2"
  input: "input_pipeline_task1/AssertCardinalityDataset"
  input: "input_pipeline_task1/num_parallel_calls_1"
  device: "/job:tpu_worker/task:1/device:CPU:0"
  attr {
    key: "Targuments"
    value {
      list {
      }
    }
  }
  attr {
    key: "_output_shapes"
    value {
      list {
        shape {
        }
      }
    }
  }
  attr {
    key: "deterministic"
    value {
      s: "default"
    }
  }
  attr {
    key: "f"
    value {
      func {
        name: "__inference_Dataset_map_ExampleParser.parse_example_1489"
        attr {
          key: "_tf_data_function"
          value {
            b: true
          }
        }
      }
    }
  }
  attr {
    key: "output_shapes"
    value {
      list {
        shape {
        }
        shape {
        }
        shape {
        }
      }
    }
  }
  attr {
    key: "output_types"
    value {
      list {
        type: DT_STRING
        type: DT_STRING
        type: DT_INT64
      }
    }
  }
  attr {
    key: "preserve_cardinality"
    value {
      b: true
    }
  }
  attr {
    key: "use_inter_op_parallelism"
    value {
      b: true
    }
  }
}
node {
  name: "input_pipeline_task1/num_parallel_calls_2"
  op: "Const"
  device: "/job:tpu_worker/task:1/device:CPU:0"
  attr {
    key: "_output_shapes"
    value {
      list {
        shape {
        }
      }
    }
  }
  attr {
    key: "dtype"
    value {
      type: DT_INT64
    }
  }
  attr {
    key: "value"
    value {
      tensor {
        dtype: DT_INT64
        tensor_shape {
        }
        int64_val: -1
      }
    }
  }
}
node {
  name: "input_pipeline_task1/ParallelMapDatasetV2_1"
  op: "ParallelMapDatasetV2"
  input: "input_pipeline_task1/ParallelMapDatasetV2"
  input: "input_pipeline_task1/num_parallel_calls_2"
  device: "/job:tpu_worker/task:1/device:CPU:0"
  attr {
    key: "Targuments"
    value {
      list {
      }
    }
  }
  attr {
    key: "_output_shapes"
    value {
      list {
        shape {
        }
      }
    }
  }
  attr {
    key: "deterministic"
    value {
      s: "default"
    }
  }
  attr {
    key: "f"
    value {
      func {
        name: "__inference_Dataset_map_classfunctools.partial_1582"
        attr {
          key: "_tf_data_function"
          value {
            b: true
          }
        }
      }
    }
  }
  attr {
    key: "output_shapes"
    value {
      list {
        shape {
        }
        shape {
          dim {
            size: -1
          }
          dim {
            size: -1
          }
          dim {
            size: 3
          }
        }
        shape {
        }
      }
    }
  }
  attr {
    key: "output_types"
    value {
      list {
        type: DT_STRING
        type: DT_UINT8
        type: DT_INT64
      }
    }
  }
  attr {
    key: "preserve_cardinality"
    value {
      b: true
    }
  }
  attr {
    key: "use_inter_op_parallelism"
    value {
      b: true
    }
  }
}
node {
  name: "input_pipeline_task1/buffer_size_1"
  op: "Const"
  device: "/job:tpu_worker/task:1/device:CPU:0"
  attr {
    key: "_output_shapes"
    value {
      list {
        shape {
        }
      }
    }
  }
  attr {
    key: "dtype"
    value {
      type: DT_INT64
    }
  }
  attr {
    key: "value"
    value {
      tensor {
        dtype: DT_INT64
        tensor_shape {
        }
        int64_val: -1
      }
    }
  }
}
node {
  name: "input_pipeline_task1/PrefetchDataset"
  op: "PrefetchDataset"
  input: "input_pipeline_task1/ParallelMapDatasetV2_1"
  input: "input_pipeline_task1/buffer_size_1"
  device: "/job:tpu_worker/task:1/device:CPU:0"
  attr {
    key: "_output_shapes"
    value {
      list {
        shape {
        }
      }
    }
  }
  attr {
    key: "legacy_autotune"
    value {
      b: true
    }
  }
  attr {
    key: "output_shapes"
    value {
      list {
        shape {
        }
        shape {
          dim {
            size: -1
          }
          dim {
            size: -1
          }
          dim {
            size: 3
          }
        }
        shape {
        }
      }
    }
  }
  attr {
    key: "output_types"
    value {
      list {
        type: DT_STRING
        type: DT_UINT8
        type: DT_INT64
      }
    }
  }
  attr {
    key: "slack_period"
    value {
      i: 0
    }
  }
}
node {
  name: "input_pipeline_task1/num_parallel_calls_3"
  op: "Const"
  device: "/job:tpu_worker/task:1/device:CPU:0"
  attr {
    key: "_output_shapes"
    value {
      list {
        shape {
        }
      }
    }
  }
  attr {
    key: "dtype"
    value {
      type: DT_INT64
    }
  }
  attr {
    key: "value"
    value {
      tensor {
        dtype: DT_INT64
        tensor_shape {
        }
        int64_val: -1
      }
    }
  }
}
node {
  name: "input_pipeline_task1/ParallelMapDatasetV2_2"
  op: "ParallelMapDatasetV2"
  input: "input_pipeline_task1/PrefetchDataset"
  input: "input_pipeline_task1/num_parallel_calls_3"
  device: "/job:tpu_worker/task:1/device:CPU:0"
  attr {
    key: "Targuments"
    value {
      list {
      }
    }
  }
  attr {
    key: "_output_shapes"
    value {
      list {
        shape {
        }
      }
    }
  }
  attr {
    key: "deterministic"
    value {
      s: "default"
    }
  }
  attr {
    key: "f"
    value {
      func {
        name: "__inference_Dataset_map_lambda_1593"
        attr {
          key: "_tf_data_function"
          value {
            b: true
          }
        }
      }
    }
  }
  attr {
    key: "output_shapes"
    value {
      list {
        shape {
          dim {
            size: -1
          }
          dim {
            size: -1
          }
          dim {
            size: 3
          }
        }
        shape {
        }
      }
    }
  }
  attr {
    key: "output_types"
    value {
      list {
        type: DT_UINT8
        type: DT_INT64
      }
    }
  }
  attr {
    key: "preserve_cardinality"
    value {
      b: true
    }
  }
  attr {
    key: "use_inter_op_parallelism"
    value {
      b: true
    }
  }
}
node {
  name: "input_pipeline_task1/buffer_size_2"
  op: "Const"
  device: "/job:tpu_worker/task:1/device:CPU:0"
  attr {
    key: "_output_shapes"
    value {
      list {
        shape {
        }
      }
    }
  }
  attr {
    key: "dtype"
    value {
      type: DT_INT64
    }
  }
  attr {
    key: "value"
    value {
      tensor {
        dtype: DT_INT64
        tensor_shape {
        }
        int64_val: 2560
      }
    }
  }
}
node {
  name: "input_pipeline_task1/seed_1"
  op: "Const"
  device: "/job:tpu_worker/task:1/device:CPU:0"
  attr {
    key: "_output_shapes"
    value {
      list {
        shape {
        }
      }
    }
  }
  attr {
    key: "dtype"
    value {
      type: DT_INT64
    }
  }
  attr {
    key: "value"
    value {
      tensor {
        dtype: DT_INT64
        tensor_shape {
        }
        int64_val: 0
      }
    }
  }
}
node {
  name: "input_pipeline_task1/seed2_1"
  op: "Const"
  device: "/job:tpu_worker/task:1/device:CPU:0"
  attr {
    key: "_output_shapes"
    value {
      list {
        shape {
        }
      }
    }
  }
  attr {
    key: "dtype"
    value {
      type: DT_INT64
    }
  }
  attr {
    key: "value"
    value {
      tensor {
        dtype: DT_INT64
        tensor_shape {
        }
        int64_val: 0
      }
    }
  }
}
node {
  name: "input_pipeline_task1/ShuffleDataset_1"
  op: "ShuffleDataset"
  input: "input_pipeline_task1/ParallelMapDatasetV2_2"
  input: "input_pipeline_task1/buffer_size_2"
  input: "input_pipeline_task1/seed_1"
  input: "input_pipeline_task1/seed2_1"
  device: "/job:tpu_worker/task:1/device:CPU:0"
  attr {
    key: "_output_shapes"
    value {
      list {
        shape {
        }
      }
    }
  }
  attr {
    key: "output_shapes"
    value {
      list {
        shape {
          dim {
            size: -1
          }
          dim {
            size: -1
          }
          dim {
            size: 3
          }
        }
        shape {
        }
      }
    }
  }
  attr {
    key: "output_types"
    value {
      list {
        type: DT_UINT8
        type: DT_INT64
      }
    }
  }
  attr {
    key: "reshuffle_each_iteration"
    value {
      b: true
    }
  }
}
node {
  name: "input_pipeline_task1/count"
  op: "Const"
  device: "/job:tpu_worker/task:1/device:CPU:0"
  attr {
    key: "_output_shapes"
    value {
      list {
        shape {
        }
      }
    }
  }
  attr {
    key: "dtype"
    value {
      type: DT_INT64
    }
  }
  attr {
    key: "value"
    value {
      tensor {
        dtype: DT_INT64
        tensor_shape {
        }
        int64_val: -1
      }
    }
  }
}
node {
  name: "input_pipeline_task1/RepeatDataset"
  op: "RepeatDataset"
  input: "input_pipeline_task1/ShuffleDataset_1"
  input: "input_pipeline_task1/count"
  device: "/job:tpu_worker/task:1/device:CPU:0"
  attr {
    key: "_output_shapes"
    value {
      list {
        shape {
        }
      }
    }
  }
  attr {
    key: "output_shapes"
    value {
      list {
        shape {
          dim {
            size: -1
          }
          dim {
            size: -1
          }
          dim {
            size: 3
          }
        }
        shape {
        }
      }
    }
  }
  attr {
    key: "output_types"
    value {
      list {
        type: DT_UINT8
        type: DT_INT64
      }
    }
  }
}
node {
  name: "input_pipeline_task1/num_parallel_calls_4"
  op: "Const"
  device: "/job:tpu_worker/task:1/device:CPU:0"
  attr {
    key: "_output_shapes"
    value {
      list {
        shape {
        }
      }
    }
  }
  attr {
    key: "dtype"
    value {
      type: DT_INT64
    }
  }
  attr {
    key: "value"
    value {
      tensor {
        dtype: DT_INT64
        tensor_shape {
        }
        int64_val: -1
      }
    }
  }
}
node {
  name: "input_pipeline_task1/ParallelMapDatasetV2_3"
  op: "ParallelMapDatasetV2"
  input: "input_pipeline_task1/RepeatDataset"
  input: "input_pipeline_task1/num_parallel_calls_4"
  device: "/job:tpu_worker/task:1/device:CPU:0"
  attr {
    key: "Targuments"
    value {
      list {
      }
    }
  }
  attr {
    key: "_output_shapes"
    value {
      list {
        shape {
        }
      }
    }
  }
  attr {
    key: "deterministic"
    value {
      s: "default"
    }
  }
  attr {
    key: "f"
    value {
      func {
        name: "__inference_Dataset_map_map_fn_2727"
        attr {
          key: "_tf_data_function"
          value {
            b: true
          }
        }
      }
    }
  }
  attr {
    key: "output_shapes"
    value {
      list {
        shape {
          dim {
            size: 224
          }
          dim {
            size: 224
          }
          dim {
            size: 6
          }
        }
        shape {
          dim {
            size: 1000
          }
        }
        shape {
        }
      }
    }
  }
  attr {
    key: "output_types"
    value {
      list {
        type: DT_FLOAT
        type: DT_FLOAT
        type: DT_FLOAT
      }
    }
  }
  attr {
    key: "preserve_cardinality"
    value {
      b: true
    }
  }
  attr {
    key: "use_inter_op_parallelism"
    value {
      b: true
    }
  }
}
node {
  name: "input_pipeline_task1/batch_size"
  op: "Const"
  device: "/job:tpu_worker/task:1/device:CPU:0"
  attr {
    key: "_output_shapes"
    value {
      list {
        shape {
        }
      }
    }
  }
  attr {
    key: "dtype"
    value {
      type: DT_INT64
    }
  }
  attr {
    key: "value"
    value {
      tensor {
        dtype: DT_INT64
        tensor_shape {
        }
        int64_val: 256
      }
    }
  }
}
node {
  name: "input_pipeline_task1/drop_remainder"
  op: "Const"
  device: "/job:tpu_worker/task:1/device:CPU:0"
  attr {
    key: "_output_shapes"
    value {
      list {
        shape {
        }
      }
    }
  }
  attr {
    key: "dtype"
    value {
      type: DT_BOOL
    }
  }
  attr {
    key: "value"
    value {
      tensor {
        dtype: DT_BOOL
        tensor_shape {
        }
        bool_val: true
      }
    }
  }
}
node {
  name: "input_pipeline_task1/BatchDatasetV2"
  op: "BatchDatasetV2"
  input: "input_pipeline_task1/ParallelMapDatasetV2_3"
  input: "input_pipeline_task1/batch_size"
  input: "input_pipeline_task1/drop_remainder"
  device: "/job:tpu_worker/task:1/device:CPU:0"
  attr {
    key: "_output_shapes"
    value {
      list {
        shape {
        }
      }
    }
  }
  attr {
    key: "output_shapes"
    value {
      list {
        shape {
          dim {
            size: 256
          }
          dim {
            size: 224
          }
          dim {
            size: 224
          }
          dim {
            size: 6
          }
        }
        shape {
          dim {
            size: 256
          }
          dim {
            size: 1000
          }
        }
        shape {
          dim {
            size: 256
          }
        }
      }
    }
  }
  attr {
    key: "output_types"
    value {
      list {
        type: DT_FLOAT
        type: DT_FLOAT
        type: DT_FLOAT
      }
    }
  }
  attr {
    key: "parallel_copy"
    value {
      b: false
    }
  }
}
node {
  name: "input_pipeline_task1/MapDataset"
  op: "MapDataset"
  input: "input_pipeline_task1/BatchDatasetV2"
  device: "/job:tpu_worker/task:1/device:CPU:0"
  attr {
    key: "Targuments"
    value {
      list {
      }
    }
  }
  attr {
    key: "_output_shapes"
    value {
      list {
        shape {
        }
      }
    }
  }
  attr {
    key: "f"
    value {
      func {
        name: "__inference_Dataset_map__pad_to_batch_2763"
        attr {
          key: "_tf_data_function"
          value {
            b: true
          }
        }
      }
    }
  }
  attr {
    key: "output_shapes"
    value {
      list {
        shape {
          dim {
            size: 256
          }
          dim {
            size: 224
          }
          dim {
            size: 224
          }
          dim {
            size: 6
          }
        }
        shape {
          dim {
            size: 256
          }
          dim {
            size: 1000
          }
        }
        shape {
          dim {
            size: 256
          }
        }
      }
    }
  }
  attr {
    key: "output_types"
    value {
      list {
        type: DT_FLOAT
        type: DT_FLOAT
        type: DT_FLOAT
      }
    }
  }
  attr {
    key: "preserve_cardinality"
    value {
      b: true
    }
  }
  attr {
    key: "use_inter_op_parallelism"
    value {
      b: true
    }
  }
}
node {
  name: "input_pipeline_task1/OneShotIterator"
  op: "OneShotIterator"
  device: "/job:tpu_worker/task:1/device:CPU:0"
  attr {
    key: "_output_shapes"
    value {
      list {
        shape {
        }
      }
    }
  }
  attr {
    key: "container"
    value {
      s: ""
    }
  }
  attr {
    key: "dataset_factory"
    value {
      func {
        name: "_make_dataset_gatOSlMJdQ0"
      }
    }
  }
  attr {
    key: "output_shapes"
    value {
      list {
        shape {
          dim {
            size: 256
          }
          dim {
            size: 224
          }
          dim {
            size: 224
          }
          dim {
            size: 6
          }
        }
        shape {
          dim {
            size: 256
          }
          dim {
            size: 1000
          }
        }
        shape {
          dim {
            size: 256
          }
        }
      }
    }
  }
  attr {
    key: "output_types"
    value {
      list {
        type: DT_FLOAT
        type: DT_FLOAT
        type: DT_FLOAT
      }
    }
  }
  attr {
    key: "shared_name"
    value {
      s: ""
    }
  }
}
node {
  name: "input_pipeline_task1/IteratorToStringHandle"
  op: "IteratorToStringHandle"
  input: "input_pipeline_task1/OneShotIterator"
  device: "/job:tpu_worker/task:1/device:CPU:0"
  attr {
    key: "_output_shapes"
    value {
      list {
        shape {
        }
      }
    }
  }
}
node {
  name: "input_pipeline_task1/IteratorGetNext"
  op: "IteratorGetNext"
  input: "input_pipeline_task1/OneShotIterator"
  device: "/job:tpu_worker/task:1/device:CPU:0"
  attr {
    key: "_output_shapes"
    value {
      list {
        shape {
          dim {
            size: 256
          }
          dim {
            size: 224
          }
          dim {
            size: 224
          }
          dim {
            size: 6
          }
        }
        shape {
          dim {
            size: 256
          }
          dim {
            size: 1000
          }
        }
        shape {
          dim {
            size: 256
          }
        }
      }
    }
  }
  attr {
    key: "output_shapes"
    value {
      list {
        shape {
          dim {
            size: 256
          }
          dim {
            size: 224
          }
          dim {
            size: 224
          }
          dim {
            size: 6
          }
        }
        shape {
          dim {
            size: 256
          }
          dim {
            size: 1000
          }
        }
        shape {
          dim {
            size: 256
          }
        }
      }
    }
  }
  attr {
    key: "output_types"
    value {
      list {
        type: DT_FLOAT
        type: DT_FLOAT
        type: DT_FLOAT
      }
    }
  }
}
node {
  name: "input_pipeline_task1/Const"
  op: "Const"
  device: "/job:tpu_worker/task:1/device:CPU:0"
  attr {
    key: "_class"
    value {
      list {
        s: "loc:@input_pipeline_task1/IteratorGetNext"
      }
    }
  }
  attr {
    key: "_output_shapes"
    value {
      list {
        shape {
        }
      }
    }
  }
  attr {
    key: "dtype"
    value {
      type: DT_INT32
    }
  }
  attr {
    key: "value"
    value {
      tensor {
        dtype: DT_INT32
        tensor_shape {
        }
        int_val: 8
      }
    }
  }
}
node {
  name: "input_pipeline_task1/InfeedQueue/split/0/split_dim"
  op: "Const"
  device: "/job:tpu_worker/task:1/device:CPU:0"
  attr {
    key: "_class"
    value {
      list {
        s: "loc:@input_pipeline_task1/IteratorGetNext"
      }
    }
  }
  attr {
    key: "_output_shapes"
    value {
      list {
        shape {
        }
      }
    }
  }
  attr {
    key: "dtype"
    value {
      type: DT_INT32
    }
  }
  attr {
    key: "value"
    value {
      tensor {
        dtype: DT_INT32
        tensor_shape {
        }
        int_val: 0
      }
    }
  }
}
node {
  name: "input_pipeline_task1/InfeedQueue/split/0"
  op: "Split"
  input: "input_pipeline_task1/InfeedQueue/split/0/split_dim"
  input: "input_pipeline_task1/IteratorGetNext"
  device: "/job:tpu_worker/task:1/device:CPU:0"
  attr {
    key: "T"
    value {
      type: DT_FLOAT
    }
  }
  attr {
    key: "_class"
    value {
      list {
        s: "loc:@input_pipeline_task1/IteratorGetNext"
      }
    }
  }
  attr {
    key: "_output_shapes"
    value {
      list {
        shape {
          dim {
            size: 32
          }
          dim {
            size: 224
          }
          dim {
            size: 224
          }
          dim {
            size: 6
          }
        }
        shape {
          dim {
            size: 32
          }
          dim {
            size: 224
          }
          dim {
            size: 224
          }
          dim {
            size: 6
          }
        }
        shape {
          dim {
            size: 32
          }
          dim {
            size: 224
          }
          dim {
            size: 224
          }
          dim {
            size: 6
          }
        }
        shape {
          dim {
            size: 32
          }
          dim {
            size: 224
          }
          dim {
            size: 224
          }
          dim {
            size: 6
          }
        }
        shape {
          dim {
            size: 32
          }
          dim {
            size: 224
          }
          dim {
            size: 224
          }
          dim {
            size: 6
          }
        }
        shape {
          dim {
            size: 32
          }
          dim {
            size: 224
          }
          dim {
            size: 224
          }
          dim {
            size: 6
          }
        }
        shape {
          dim {
            size: 32
          }
          dim {
            size: 224
          }
          dim {
            size: 224
          }
          dim {
            size: 6
          }
        }
        shape {
          dim {
            size: 32
          }
          dim {
            size: 224
          }
          dim {
            size: 224
          }
          dim {
            size: 6
          }
        }
      }
    }
  }
  attr {
    key: "num_split"
    value {
      i: 8
    }
  }
}
node {
  name: "input_pipeline_task1/Const_1"
  op: "Const"
  device: "/job:tpu_worker/task:1/device:CPU:0"
  attr {
    key: "_class"
    value {
      list {
        s: "loc:@input_pipeline_task1/IteratorGetNext"
      }
    }
  }
  attr {
    key: "_output_shapes"
    value {
      list {
        shape {
        }
      }
    }
  }
  attr {
    key: "dtype"
    value {
      type: DT_INT32
    }
  }
  attr {
    key: "value"
    value {
      tensor {
        dtype: DT_INT32
        tensor_shape {
        }
        int_val: 8
      }
    }
  }
}
node {
  name: "input_pipeline_task1/InfeedQueue/split/1/split_dim"
  op: "Const"
  device: "/job:tpu_worker/task:1/device:CPU:0"
  attr {
    key: "_class"
    value {
      list {
        s: "loc:@input_pipeline_task1/IteratorGetNext"
      }
    }
  }
  attr {
    key: "_output_shapes"
    value {
      list {
        shape {
        }
      }
    }
  }
  attr {
    key: "dtype"
    value {
      type: DT_INT32
    }
  }
  attr {
    key: "value"
    value {
      tensor {
        dtype: DT_INT32
        tensor_shape {
        }
        int_val: 0
      }
    }
  }
}
node {
  name: "input_pipeline_task1/InfeedQueue/split/1"
  op: "Split"
  input: "input_pipeline_task1/InfeedQueue/split/1/split_dim"
  input: "input_pipeline_task1/IteratorGetNext:1"
  device: "/job:tpu_worker/task:1/device:CPU:0"
  attr {
    key: "T"
    value {
      type: DT_FLOAT
    }
  }
  attr {
    key: "_class"
    value {
      list {
        s: "loc:@input_pipeline_task1/IteratorGetNext"
      }
    }
  }
  attr {
    key: "_output_shapes"
    value {
      list {
        shape {
          dim {
            size: 32
          }
          dim {
            size: 1000
          }
        }
        shape {
          dim {
            size: 32
          }
          dim {
            size: 1000
          }
        }
        shape {
          dim {
            size: 32
          }
          dim {
            size: 1000
          }
        }
        shape {
          dim {
            size: 32
          }
          dim {
            size: 1000
          }
        }
        shape {
          dim {
            size: 32
          }
          dim {
            size: 1000
          }
        }
        shape {
          dim {
            size: 32
          }
          dim {
            size: 1000
          }
        }
        shape {
          dim {
            size: 32
          }
          dim {
            size: 1000
          }
        }
        shape {
          dim {
            size: 32
          }
          dim {
            size: 1000
          }
        }
      }
    }
  }
  attr {
    key: "num_split"
    value {
      i: 8
    }
  }
}
node {
  name: "input_pipeline_task1/Const_2"
  op: "Const"
  device: "/job:tpu_worker/task:1/device:CPU:0"
  attr {
    key: "_class"
    value {
      list {
        s: "loc:@input_pipeline_task1/IteratorGetNext"
      }
    }
  }
  attr {
    key: "_output_shapes"
    value {
      list {
        shape {
        }
      }
    }
  }
  attr {
    key: "dtype"
    value {
      type: DT_INT32
    }
  }
  attr {
    key: "value"
    value {
      tensor {
        dtype: DT_INT32
        tensor_shape {
        }
        int_val: 8
      }
    }
  }
}
node {
  name: "input_pipeline_task1/InfeedQueue/split/2/split_dim"
  op: "Const"
  device: "/job:tpu_worker/task:1/device:CPU:0"
  attr {
    key: "_class"
    value {
      list {
        s: "loc:@input_pipeline_task1/IteratorGetNext"
      }
    }
  }
  attr {
    key: "_output_shapes"
    value {
      list {
        shape {
        }
      }
    }
  }
  attr {
    key: "dtype"
    value {
      type: DT_INT32
    }
  }
  attr {
    key: "value"
    value {
      tensor {
        dtype: DT_INT32
        tensor_shape {
        }
        int_val: 0
      }
    }
  }
}
node {
  name: "input_pipeline_task1/InfeedQueue/split/2"
  op: "Split"
  input: "input_pipeline_task1/InfeedQueue/split/2/split_dim"
  input: "input_pipeline_task1/IteratorGetNext:2"
  device: "/job:tpu_worker/task:1/device:CPU:0"
  attr {
    key: "T"
    value {
      type: DT_FLOAT
    }
  }
  attr {
    key: "_class"
    value {
      list {
        s: "loc:@input_pipeline_task1/IteratorGetNext"
      }
    }
  }
  attr {
    key: "_output_shapes"
    value {
      list {
        shape {
          dim {
            size: 32
          }
        }
        shape {
          dim {
            size: 32
          }
        }
        shape {
          dim {
            size: 32
          }
        }
        shape {
          dim {
            size: 32
          }
        }
        shape {
          dim {
            size: 32
          }
        }
        shape {
          dim {
            size: 32
          }
        }
        shape {
          dim {
            size: 32
          }
        }
        shape {
          dim {
            size: 32
          }
        }
      }
    }
  }
  attr {
    key: "num_split"
    value {
      i: 8
    }
  }
}
node {
  name: "input_pipeline_task1/InfeedQueue/enqueue/0"
  op: "InfeedEnqueueTuple"
  input: "input_pipeline_task1/InfeedQueue/split/0"
  input: "input_pipeline_task1/InfeedQueue/split/1"
  input: "input_pipeline_task1/InfeedQueue/split/2"
  device: "/job:tpu_worker/task:1/device:CPU:0"
  attr {
    key: "device_ordinal"
    value {
      i: 0
    }
  }
  attr {
    key: "dtypes"
    value {
      list {
        type: DT_FLOAT
        type: DT_FLOAT
        type: DT_FLOAT
      }
    }
  }
  attr {
    key: "layouts"
    value {
      list {
      }
    }
  }
  attr {
    key: "shapes"
    value {
      list {
        shape {
          dim {
            size: 32
          }
          dim {
            size: 224
          }
          dim {
            size: 224
          }
          dim {
            size: 6
          }
        }
        shape {
          dim {
            size: 32
          }
          dim {
            size: 1000
          }
        }
        shape {
          dim {
            size: 32
          }
        }
      }
    }
  }
}
node {
  name: "input_pipeline_task1/InfeedQueue/enqueue/1"
  op: "InfeedEnqueueTuple"
  input: "input_pipeline_task1/InfeedQueue/split/0:1"
  input: "input_pipeline_task1/InfeedQueue/split/1:1"
  input: "input_pipeline_task1/InfeedQueue/split/2:1"
  device: "/job:tpu_worker/task:1/device:CPU:0"
  attr {
    key: "device_ordinal"
    value {
      i: 1
    }
  }
  attr {
    key: "dtypes"
    value {
      list {
        type: DT_FLOAT
        type: DT_FLOAT
        type: DT_FLOAT
      }
    }
  }
  attr {
    key: "layouts"
    value {
      list {
      }
    }
  }
  attr {
    key: "shapes"
    value {
      list {
        shape {
          dim {
            size: 32
          }
          dim {
            size: 224
          }
          dim {
            size: 224
          }
          dim {
            size: 6
          }
        }
        shape {
          dim {
            size: 32
          }
          dim {
            size: 1000
          }
        }
        shape {
          dim {
            size: 32
          }
        }
      }
    }
  }
}
node {
  name: "input_pipeline_task1/InfeedQueue/enqueue/2"
  op: "InfeedEnqueueTuple"
  input: "input_pipeline_task1/InfeedQueue/split/0:2"
  input: "input_pipeline_task1/InfeedQueue/split/1:2"
  input: "input_pipeline_task1/InfeedQueue/split/2:2"
  device: "/job:tpu_worker/task:1/device:CPU:0"
  attr {
    key: "device_ordinal"
    value {
      i: 2
    }
  }
  attr {
    key: "dtypes"
    value {
      list {
        type: DT_FLOAT
        type: DT_FLOAT
        type: DT_FLOAT
      }
    }
  }
  attr {
    key: "layouts"
    value {
      list {
      }
    }
  }
  attr {
    key: "shapes"
    value {
      list {
        shape {
          dim {
            size: 32
          }
          dim {
            size: 224
          }
          dim {
            size: 224
          }
          dim {
            size: 6
          }
        }
        shape {
          dim {
            size: 32
          }
          dim {
            size: 1000
          }
        }
        shape {
          dim {
            size: 32
          }
        }
      }
    }
  }
}
node {
  name: "input_pipeline_task1/InfeedQueue/enqueue/3"
  op: "InfeedEnqueueTuple"
  input: "input_pipeline_task1/InfeedQueue/split/0:3"
  input: "input_pipeline_task1/InfeedQueue/split/1:3"
  input: "input_pipeline_task1/InfeedQueue/split/2:3"
  device: "/job:tpu_worker/task:1/device:CPU:0"
  attr {
    key: "device_ordinal"
    value {
      i: 3
    }
  }
  attr {
    key: "dtypes"
    value {
      list {
        type: DT_FLOAT
        type: DT_FLOAT
        type: DT_FLOAT
      }
    }
  }
  attr {
    key: "layouts"
    value {
      list {
      }
    }
  }
  attr {
    key: "shapes"
    value {
      list {
        shape {
          dim {
            size: 32
          }
          dim {
            size: 224
          }
          dim {
            size: 224
          }
          dim {
            size: 6
          }
        }
        shape {
          dim {
            size: 32
          }
          dim {
            size: 1000
          }
        }
        shape {
          dim {
            size: 32
          }
        }
      }
    }
  }
}
node {
  name: "input_pipeline_task1/InfeedQueue/enqueue/4"
  op: "InfeedEnqueueTuple"
  input: "input_pipeline_task1/InfeedQueue/split/0:4"
  input: "input_pipeline_task1/InfeedQueue/split/1:4"
  input: "input_pipeline_task1/InfeedQueue/split/2:4"
  device: "/job:tpu_worker/task:1/device:CPU:0"
  attr {
    key: "device_ordinal"
    value {
      i: 4
    }
  }
  attr {
    key: "dtypes"
    value {
      list {
        type: DT_FLOAT
        type: DT_FLOAT
        type: DT_FLOAT
      }
    }
  }
  attr {
    key: "layouts"
    value {
      list {
      }
    }
  }
  attr {
    key: "shapes"
    value {
      list {
        shape {
          dim {
            size: 32
          }
          dim {
            size: 224
          }
          dim {
            size: 224
          }
          dim {
            size: 6
          }
        }
        shape {
          dim {
            size: 32
          }
          dim {
            size: 1000
          }
        }
        shape {
          dim {
            size: 32
          }
        }
      }
    }
  }
}
node {
  name: "input_pipeline_task1/InfeedQueue/enqueue/5"
  op: "InfeedEnqueueTuple"
  input: "input_pipeline_task1/InfeedQueue/split/0:5"
  input: "input_pipeline_task1/InfeedQueue/split/1:5"
  input: "input_pipeline_task1/InfeedQueue/split/2:5"
  device: "/job:tpu_worker/task:1/device:CPU:0"
  attr {
    key: "device_ordinal"
    value {
      i: 5
    }
  }
  attr {
    key: "dtypes"
    value {
      list {
        type: DT_FLOAT
        type: DT_FLOAT
        type: DT_FLOAT
      }
    }
  }
  attr {
    key: "layouts"
    value {
      list {
      }
    }
  }
  attr {
    key: "shapes"
    value {
      list {
        shape {
          dim {
            size: 32
          }
          dim {
            size: 224
          }
          dim {
            size: 224
          }
          dim {
            size: 6
          }
        }
        shape {
          dim {
            size: 32
          }
          dim {
            size: 1000
          }
        }
        shape {
          dim {
            size: 32
          }
        }
      }
    }
  }
}
node {
  name: "input_pipeline_task1/InfeedQueue/enqueue/6"
  op: "InfeedEnqueueTuple"
  input: "input_pipeline_task1/InfeedQueue/split/0:6"
  input: "input_pipeline_task1/InfeedQueue/split/1:6"
  input: "input_pipeline_task1/InfeedQueue/split/2:6"
  device: "/job:tpu_worker/task:1/device:CPU:0"
  attr {
    key: "device_ordinal"
    value {
      i: 6
    }
  }
  attr {
    key: "dtypes"
    value {
      list {
        type: DT_FLOAT
        type: DT_FLOAT
        type: DT_FLOAT
      }
    }
  }
  attr {
    key: "layouts"
    value {
      list {
      }
    }
  }
  attr {
    key: "shapes"
    value {
      list {
        shape {
          dim {
            size: 32
          }
          dim {
            size: 224
          }
          dim {
            size: 224
          }
          dim {
            size: 6
          }
        }
        shape {
          dim {
            size: 32
          }
          dim {
            size: 1000
          }
        }
        shape {
          dim {
            size: 32
          }
        }
      }
    }
  }
}
node {
  name: "input_pipeline_task1/InfeedQueue/enqueue/7"
  op: "InfeedEnqueueTuple"
  input: "input_pipeline_task1/InfeedQueue/split/0:7"
  input: "input_pipeline_task1/InfeedQueue/split/1:7"
  input: "input_pipeline_task1/InfeedQueue/split/2:7"
  device: "/job:tpu_worker/task:1/device:CPU:0"
  attr {
    key: "device_ordinal"
    value {
      i: 7
    }
  }
  attr {
    key: "dtypes"
    value {
      list {
        type: DT_FLOAT
        type: DT_FLOAT
        type: DT_FLOAT
      }
    }
  }
  attr {
    key: "layouts"
    value {
      list {
      }
    }
  }
  attr {
    key: "shapes"
    value {
      list {
        shape {
          dim {
            size: 32
          }
          dim {
            size: 224
          }
          dim {
            size: 224
          }
          dim {
            size: 6
          }
        }
        shape {
          dim {
            size: 32
          }
          dim {
            size: 1000
          }
        }
        shape {
          dim {
            size: 32
          }
        }
      }
    }
  }
}
node {
  name: "input_pipeline_task2/normalize_element/component_0"
  op: "Const"
  device: "/job:tpu_worker/task:2/device:CPU:0"
  attr {
    key: "_output_shapes"
    value {
      list {
        shape {
          dim {
            size: 1024
          }
        }
      }
    }
  }
  attr {
    key: "dtype"
    value {
      type: DT_STRING
    }
  }
  attr {
    key: "value"
    value {
      tensor {
        dtype: DT_STRING
        tensor_shape {
          dim {
            size: 1024
          }
        }
        string_val: "…"
        string_val: "…"
        string_val: "…"
        string_val: "…"
        string_val: "…"
        string_val: "…"
        string_val: "…"
        string_val: "…"
        string_val: "…"
        string_val: "…"
        string_val: "…"
        string_val: "…"
        string_val: "…"
        string_val: "…"
        string_val: "…"
        string_val: "…"
        string_val: "…"
        string_val: "…"
        string_val: "…"
        string_val: "…"
        string_val: "…"
        string_val: "…"
        string_val: "…"
        string_val: "…"
        string_val: "…"
        string_val: "…"
        string_val: "…"
        string_val: "…"
        string_val: "…"
        string_val: "…"
        string_val: "…"
        string_val: "…"
        string_val: "…"
        string_val: "…"
        string_val: "…"
        string_val: "…"
        string_val: "…"
        string_val: "…"
        string_val: "…"
        string_val: "…"
        string_val: "…"
        string_val: "…"
        string_val: "…"
        string_val: "…"
        string_val: "…"
        string_val: "…"
        string_val: "…"
        string_val: "…"
        string_val: "…"
        string_val: "…"
        string_val: "…"
        string_val: "…"
        string_val: "…"
        string_val: "…"
        string_val: "…"
        string_val: "…"
        string_val: "…"
        string_val: "…"
        string_val: "…"
        string_val: "…"
        string_val: "…"
        string_val: "…"
        string_val: "…"
        string_val: "…"
        string_val: "…"
        string_val: "…"
        string_val: "…"
        string_val: "…"
        string_val: "…"
        string_val: "…"
        string_val: "…"
        string_val: "…"
        string_val: "…"
        string_val: "…"
        string_val: "…"
        string_val: "…"
        string_val: "…"
        string_val: "…"
        string_val: "…"
        string_val: "…"
        string_val: "…"
        string_val: "…"
        string_val: "…"
        string_val: "…"
        string_val: "…"
        string_val: "…"
        string_val: "…"
        string_val: "…"
        string_val: "…"
        string_val: "…"
        string_val: "…"
        string_val: "…"
        string_val: "…"
        string_val: "…"
        string_val: "…"
        string_val: "…"
        string_val: "…"
        string_val: "…"
        string_val: "…"
        string_val: "…"
        string_val: "…"
        string_val: "…"
        string_val: "…"
        string_val: "…"
        string_val: "…"
        string_val: "…"
        string_val: "…"
        string_val: "…"
        string_val: "…"
        string_val: "…"
        string_val: "…"
        string_val: "…"
        string_val: "…"
        string_val: "…"
        string_val: "…"
        string_val: "…"
        string_val: "…"
        string_val: "…"
        string_val: "…"
        string_val: "…"
        string_val: "…"
        string_val: "…"
        string_val: "…"
        string_val: "…"
        string_val: "…"
        string_val: "…"
        string_val: "…"
        string_val: "…"
        string_val: "…"
        string_val: "…"
        string_val: "…"
        string_val: "…"
        string_val: "…"
        string_val: "…"
        string_val: "…"
        string_val: "…"
        string_val: "…"
        string_val: "…"
        string_val: "…"
        string_val: "…"
        string_val: "…"
        string_val: "…"
        string_val: "…"
        string_val: "…"
        string_val: "…"
        string_val: "…"
        string_val: "…"
        string_val: "…"
        string_val: "…"
        string_val: "…"
        string_val: "…"
        string_val: "…"
        string_val: "…"
        string_val: "…"
        string_val: "…"
        string_val: "…"
        string_val: "…"
        string_val: "…"
        string_val: "…"
        string_val: "…"
        string_val: "…"
        string_val: "…"
        string_val: "…"
        string_val: "…"
        string_val: "…"
        string_val: "…"
        string_val: "…"
        string_val: "…"
        string_val: "…"
        string_val: "…"
        string_val: "…"
        string_val: "…"
        string_val: "…"
        string_val: "…"
        string_val: "…"
        string_val: "…"
        string_val: "…"
        string_val: "…"
        string_val: "…"
        string_val: "…"
        string_val: "…"
        string_val: "…"
        string_val: "…"
        string_val: "…"
        string_val: "…"
        string_val: "…"
        string_val: "…"
        string_val: "…"
        string_val: "…"
        string_val: "…"
        string_val: "…"
        string_val: "…"
        string_val: "…"
        string_val: "…"
        string_val: "…"
        string_val: "…"
        string_val: "…"
        string_val: "…"
        string_val: "…"
        string_val: "…"
        string_val: "…"
        string_val: "…"
        string_val: "…"
        string_val: "…"
        string_val: "…"
        string_val: "…"
        string_val: "…"
        string_val: "…"
        string_val: "…"
        string_val: "…"
        string_val: "…"
        string_val: "…"
        string_val: "…"
        string_val: "…"
        string_val: "…"
        string_val: "…"
        string_val: "…"
        string_val: "…"
        string_val: "…"
        string_val: "…"
        string_val: "…"
        string_val: "…"
        string_val: "…"
        string_val: "…"
        string_val: "…"
        string_val: "…"
        string_val: "…"
        string_val: "…"
        string_val: "…"
        string_val: "…"
        string_val: "…"
        string_val: "…"
        string_val: "…"
        string_val: "…"
        string_val: "…"
        string_val: "…"
        string_val: "…"
        string_val: "…"
        string_val: "…"
        string_val: "…"
        string_val: "…"
        string_val: "…"
        string_val: "…"
        string_val: "…"
        string_val: "…"
        string_val: "…"
        string_val: "…"
        string_val: "…"
        string_val: "…"
        string_val: "…"
        string_val: "…"
        string_val: "…"
        string_val: "…"
        string_val: "…"
        string_val: "…"
        string_val: "…"
        string_val: "…"
        string_val: "…"
        string_val: "…"
        string_val: "…"
        string_val: "…"
        string_val: "…"
        string_val: "…"
        string_val: "…"
        string_val: "…"
        string_val: "…"
        string_val: "…"
        string_val: "…"
        string_val: "…"
        string_val: "…"
        string_val: "…"
        string_val: "…"
        string_val: "…"
        string_val: "…"
        string_val: "…"
        string_val: "…"
        string_val: "…"
        string_val: "…"
        string_val: "…"
        string_val: "…"
        string_val: "…"
        string_val: "…"
        string_val: "…"
        string_val: "…"
        string_val: "…"
        string_val: "…"
        string_val: "…"
        string_val: "…"
        string_val: "…"
        string_val: "…"
        string_val: "…"
        string_val: "…"
        string_val: "…"
        string_val: "…"
        string_val: "…"
        string_val: "…"
        string_val: "…"
        string_val: "…"
        string_val: "…"
        string_val: "…"
        string_val: "…"
        string_val: "…"
        string_val: "…"
        string_val: "…"
        string_val: "…"
…
  input: "input_pipeline_task3/num_parallel_calls_4"
  device: "/job:tpu_worker/task:3/device:CPU:0"
  attr {
    key: "Targuments"
    value {
      list {
      }
    }
  }
  attr {
    key: "_output_shapes"
    value {
      list {
        shape {
        }
      }
    }
  }
  attr {
    key: "deterministic"
    value {
      s: "default"
    }
  }
  attr {
    key: "f"
    value {
      func {
        name: "__inference_Dataset_map_map_fn_5545"
        attr {
          key: "_tf_data_function"
          value {
            b: true
          }
        }
      }
    }
  }
  attr {
    key: "output_shapes"
    value {
      list {
        shape {
          dim {
            size: 224
          }
          dim {
            size: 224
          }
          dim {
            size: 6
          }
        }
        shape {
          dim {
            size: 1000
          }
        }
        shape {
        }
      }
    }
  }
  attr {
    key: "output_types"
    value {
      list {
        type: DT_FLOAT
        type: DT_FLOAT
        type: DT_FLOAT
      }
    }
  }
  attr {
    key: "preserve_cardinality"
    value {
      b: true
    }
  }
  attr {
    key: "use_inter_op_parallelism"
    value {
      b: true
    }
  }
}
node {
  name: "input_pipeline_task3/batch_size"
  op: "Const"
  device: "/job:tpu_worker/task:3/device:CPU:0"
  attr {
    key: "_output_shapes"
    value {
      list {
        shape {
        }
      }
    }
  }
  attr {
    key: "dtype"
    value {
      type: DT_INT64
    }
  }
  attr {
    key: "value"
    value {
      tensor {
        dtype: DT_INT64
        tensor_shape {
        }
        int64_val: 256
      }
    }
  }
}
node {
  name: "input_pipeline_task3/drop_remainder"
  op: "Const"
  device: "/job:tpu_worker/task:3/device:CPU:0"
  attr {
    key: "_output_shapes"
    value {
      list {
        shape {
        }
      }
    }
  }
  attr {
    key: "dtype"
    value {
      type: DT_BOOL
    }
  }
  attr {
    key: "value"
    value {
      tensor {
        dtype: DT_BOOL
        tensor_shape {
        }
        bool_val: true
      }
    }
  }
}
node {
  name: "input_pipeline_task3/BatchDatasetV2"
  op: "BatchDatasetV2"
  input: "input_pipeline_task3/ParallelMapDatasetV2_3"
  input: "input_pipeline_task3/batch_size"
  input: "input_pipeline_task3/drop_remainder"
  device: "/job:tpu_worker/task:3/device:CPU:0"
  attr {
    key: "_output_shapes"
    value {
      list {
        shape {
        }
      }
    }
  }
  attr {
    key: "output_shapes"
    value {
      list {
        shape {
          dim {
            size: 256
          }
          dim {
            size: 224
          }
          dim {
            size: 224
          }
          dim {
            size: 6
          }
        }
        shape {
          dim {
            size: 256
          }
          dim {
            size: 1000
          }
        }
        shape {
          dim {
            size: 256
          }
        }
      }
    }
  }
  attr {
    key: "output_types"
    value {
      list {
        type: DT_FLOAT
        type: DT_FLOAT
        type: DT_FLOAT
      }
    }
  }
  attr {
    key: "parallel_copy"
    value {
      b: false
    }
  }
}
node {
  name: "input_pipeline_task3/MapDataset"
  op: "MapDataset"
  input: "input_pipeline_task3/BatchDatasetV2"
  device: "/job:tpu_worker/task:3/device:CPU:0"
  attr {
    key: "Targuments"
    value {
      list {
      }
    }
  }
  attr {
    key: "_output_shapes"
    value {
      list {
        shape {
        }
      }
    }
  }
  attr {
    key: "f"
    value {
      func {
        name: "__inference_Dataset_map__pad_to_batch_5581"
        attr {
          key: "_tf_data_function"
          value {
            b: true
          }
        }
      }
    }
  }
  attr {
    key: "output_shapes"
    value {
      list {
        shape {
          dim {
            size: 256
          }
          dim {
            size: 224
          }
          dim {
            size: 224
          }
          dim {
            size: 6
          }
        }
        shape {
          dim {
            size: 256
          }
          dim {
            size: 1000
          }
        }
        shape {
          dim {
            size: 256
          }
        }
      }
    }
  }
  attr {
    key: "output_types"
    value {
      list {
        type: DT_FLOAT
        type: DT_FLOAT
        type: DT_FLOAT
      }
    }
  }
  attr {
    key: "preserve_cardinality"
    value {
      b: true
    }
  }
  attr {
    key: "use_inter_op_parallelism"
    value {
      b: true
    }
  }
}
node {
  name: "input_pipeline_task3/OneShotIterator"
  op: "OneShotIterator"
  device: "/job:tpu_worker/task:3/device:CPU:0"
  attr {
    key: "_output_shapes"
    value {
      list {
        shape {
        }
      }
    }
  }
  attr {
    key: "container"
    value {
      s: ""
    }
  }
  attr {
    key: "dataset_factory"
    value {
      func {
        name: "_make_dataset_SCywDBGP1Cc"
      }
    }
  }
  attr {
    key: "output_shapes"
    value {
      list {
        shape {
          dim {
            size: 256
          }
          dim {
            size: 224
          }
          dim {
            size: 224
          }
          dim {
            size: 6
          }
        }
        shape {
          dim {
            size: 256
          }
          dim {
            size: 1000
          }
        }
        shape {
          dim {
            size: 256
          }
        }
      }
    }
  }
  attr {
    key: "output_types"
    value {
      list {
        type: DT_FLOAT
        type: DT_FLOAT
        type: DT_FLOAT
      }
    }
  }
  attr {
    key: "shared_name"
    value {
      s: ""
    }
  }
}
node {
  name: "input_pipeline_task3/IteratorToStringHandle"
  op: "IteratorToStringHandle"
  input: "input_pipeline_task3/OneShotIterator"
  device: "/job:tpu_worker/task:3/device:CPU:0"
  attr {
    key: "_output_shapes"
    value {
      list {
        shape {
        }
      }
    }
  }
}
node {
  name: "input_pipeline_task3/IteratorGetNext"
  op: "IteratorGetNext"
  input: "input_pipeline_task3/OneShotIterator"
  device: "/job:tpu_worker/task:3/device:CPU:0"
  attr {
    key: "_output_shapes"
    value {
      list {
        shape {
          dim {
            size: 256
          }
          dim {
            size: 224
          }
          dim {
            size: 224
          }
          dim {
            size: 6
          }
        }
        shape {
          dim {
            size: 256
          }
          dim {
            size: 1000
          }
        }
        shape {
          dim {
            size: 256
          }
        }
      }
    }
  }
  attr {
    key: "output_shapes"
    value {
      list {
        shape {
          dim {
            size: 256
          }
          dim {
            size: 224
          }
          dim {
            size: 224
          }
          dim {
            size: 6
          }
        }
        shape {
          dim {
            size: 256
          }
          dim {
            size: 1000
          }
        }
        shape {
          dim {
            size: 256
          }
        }
      }
    }
  }
  attr {
    key: "output_types"
    value {
      list {
        type: DT_FLOAT
        type: DT_FLOAT
        type: DT_FLOAT
      }
    }
  }
}
node {
  name: "input_pipeline_task3/Const"
  op: "Const"
  device: "/job:tpu_worker/task:3/device:CPU:0"
  attr {
    key: "_class"
    value {
      list {
        s: "loc:@input_pipeline_task3/IteratorGetNext"
      }
    }
  }
  attr {
    key: "_output_shapes"
    value {
      list {
        shape {
        }
      }
    }
  }
  attr {
    key: "dtype"
    value {
      type: DT_INT32
    }
  }
  attr {
    key: "value"
    value {
      tensor {
        dtype: DT_INT32
        tensor_shape {
        }
        int_val: 8
      }
    }
  }
}
node {
  name: "input_pipeline_task3/InfeedQueue/split/0/split_dim"
  op: "Const"
  device: "/job:tpu_worker/task:3/device:CPU:0"
  attr {
    key: "_class"
    value {
      list {
        s: "loc:@input_pipeline_task3/IteratorGetNext"
      }
    }
  }
  attr {
    key: "_output_shapes"
    value {
      list {
        shape {
        }
      }
    }
  }
  attr {
    key: "dtype"
    value {
      type: DT_INT32
    }
  }
  attr {
    key: "value"
    value {
      tensor {
        dtype: DT_INT32
        tensor_shape {
        }
        int_val: 0
      }
    }
  }
}
node {
  name: "input_pipeline_task3/InfeedQueue/split/0"
  op: "Split"
  input: "input_pipeline_task3/InfeedQueue/split/0/split_dim"
  input: "input_pipeline_task3/IteratorGetNext"
  device: "/job:tpu_worker/task:3/device:CPU:0"
  attr {
    key: "T"
    value {
      type: DT_FLOAT
    }
  }
  attr {
    key: "_class"
    value {
      list {
        s: "loc:@input_pipeline_task3/IteratorGetNext"
      }
    }
  }
  attr {
    key: "_output_shapes"
    value {
      list {
        shape {
          dim {
            size: 32
          }
          dim {
            size: 224
          }
          dim {
            size: 224
          }
          dim {
            size: 6
          }
        }
        shape {
          dim {
            size: 32
          }
          dim {
            size: 224
          }
          dim {
            size: 224
          }
          dim {
            size: 6
          }
        }
        shape {
          dim {
            size: 32
          }
          dim {
            size: 224
          }
          dim {
            size: 224
          }
          dim {
            size: 6
          }
        }
        shape {
          dim {
            size: 32
          }
          dim {
            size: 224
          }
          dim {
            size: 224
          }
          dim {
            size: 6
          }
        }
        shape {
          dim {
            size: 32
          }
          dim {
            size: 224
          }
          dim {
            size: 224
          }
          dim {
            size: 6
          }
        }
        shape {
          dim {
            size: 32
          }
          dim {
            size: 224
          }
          dim {
            size: 224
          }
          dim {
            size: 6
          }
        }
        shape {
          dim {
            size: 32
          }
          dim {
            size: 224
          }
          dim {
            size: 224
          }
          dim {
            size: 6
          }
        }
        shape {
          dim {
            size: 32
          }
          dim {
            size: 224
          }
          dim {
            size: 224
          }
          dim {
            size: 6
          }
        }
      }
    }
  }
  attr {
    key: "num_split"
    value {
      i: 8
    }
  }
}
node {
  name: "input_pipeline_task3/Const_1"
  op: "Const"
  device: "/job:tpu_worker/task:3/device:CPU:0"
  attr {
    key: "_class"
    value {
      list {
        s: "loc:@input_pipeline_task3/IteratorGetNext"
      }
    }
  }
  attr {
    key: "_output_shapes"
    value {
      list {
        shape {
        }
      }
    }
  }
  attr {
    key: "dtype"
    value {
      type: DT_INT32
    }
  }
  attr {
    key: "value"
    value {
      tensor {
        dtype: DT_INT32
        tensor_shape {
        }
        int_val: 8
      }
    }
  }
}
node {
  name: "input_pipeline_task3/InfeedQueue/split/1/split_dim"
  op: "Const"
  device: "/job:tpu_worker/task:3/device:CPU:0"
  attr {
    key: "_class"
    value {
      list {
        s: "loc:@input_pipeline_task3/IteratorGetNext"
      }
    }
  }
  attr {
    key: "_output_shapes"
    value {
      list {
        shape {
        }
      }
    }
  }
  attr {
    key: "dtype"
    value {
      type: DT_INT32
    }
  }
  attr {
    key: "value"
    value {
      tensor {
        dtype: DT_INT32
        tensor_shape {
        }
        int_val: 0
      }
    }
  }
}
node {
  name: "input_pipeline_task3/InfeedQueue/split/1"
  op: "Split"
  input: "input_pipeline_task3/InfeedQueue/split/1/split_dim"
  input: "input_pipeline_task3/IteratorGetNext:1"
  device: "/job:tpu_worker/task:3/device:CPU:0"
  attr {
    key: "T"
    value {
      type: DT_FLOAT
    }
  }
  attr {
    key: "_class"
    value {
      list {
        s: "loc:@input_pipeline_task3/IteratorGetNext"
      }
    }
  }
  attr {
    key: "_output_shapes"
    value {
      list {
        shape {
          dim {
            size: 32
          }
          dim {
            size: 1000
          }
        }
        shape {
          dim {
            size: 32
          }
          dim {
            size: 1000
          }
        }
        shape {
          dim {
            size: 32
          }
          dim {
            size: 1000
          }
        }
        shape {
          dim {
            size: 32
          }
          dim {
            size: 1000
          }
        }
        shape {
          dim {
            size: 32
          }
          dim {
            size: 1000
          }
        }
        shape {
          dim {
            size: 32
          }
          dim {
            size: 1000
          }
        }
        shape {
          dim {
            size: 32
          }
          dim {
            size: 1000
          }
        }
        shape {
          dim {
            size: 32
          }
          dim {
            size: 1000
          }
        }
      }
    }
  }
  attr {
    key: "num_split"
    value {
      i: 8
    }
  }
}
node {
  name: "input_pipeline_task3/Const_2"
  op: "Const"
  device: "/job:tpu_worker/task:3/device:CPU:0"
  attr {
    key: "_class"
    value {
      list {
        s: "loc:@input_pipeline_task3/IteratorGetNext"
      }
    }
  }
  attr {
    key: "_output_shapes"
    value {
      list {
        shape {
        }
      }
    }
  }
  attr {
    key: "dtype"
    value {
      type: DT_INT32
    }
  }
  attr {
    key: "value"
    value {
      tensor {
        dtype: DT_INT32
        tensor_shape {
        }
        int_val: 8
      }
    }
  }
}
node {
  name: "input_pipeline_task3/InfeedQueue/split/2/split_dim"
  op: "Const"
  device: "/job:tpu_worker/task:3/device:CPU:0"
  attr {
    key: "_class"
    value {
      list {
        s: "loc:@input_pipeline_task3/IteratorGetNext"
      }
    }
  }
  attr {
    key: "_output_shapes"
    value {
      list {
        shape {
        }
      }
    }
  }
  attr {
    key: "dtype"
    value {
      type: DT_INT32
    }
  }
  attr {
    key: "value"
    value {
      tensor {
        dtype: DT_INT32
        tensor_shape {
        }
        int_val: 0
      }
    }
  }
}
node {
  name: "input_pipeline_task3/InfeedQueue/split/2"
  op: "Split"
  input: "input_pipeline_task3/InfeedQueue/split/2/split_dim"
  input: "input_pipeline_task3/IteratorGetNext:2"
  device: "/job:tpu_worker/task:3/device:CPU:0"
  attr {
    key: "T"
    value {
      type: DT_FLOAT
    }
  }
  attr {
    key: "_class"
    value {
      list {
        s: "loc:@input_pipeline_task3/IteratorGetNext"
      }
    }
  }
  attr {
    key: "_output_shapes"
    value {
      list {
        shape {
          dim {
            size: 32
          }
        }
        shape {
          dim {
            size: 32
          }
        }
        shape {
          dim {
            size: 32
          }
        }
        shape {
          dim {
            size: 32
          }
        }
        shape {
          dim {
            size: 32
          }
        }
        shape {
          dim {
            size: 32
          }
        }
        shape {
          dim {
            size: 32
          }
        }
        shape {
          dim {
            size: 32
          }
        }
      }
    }
  }
  attr {
    key: "num_split"
    value {
      i: 8
    }
  }
}
node {
  name: "input_pipeline_task3/InfeedQueue/enqueue/0"
  op: "InfeedEnqueueTuple"
  input: "input_pipeline_task3/InfeedQueue/split/0"
  input: "input_pipeline_task3/InfeedQueue/split/1"
  input: "input_pipeline_task3/InfeedQueue/split/2"
  device: "/job:tpu_worker/task:3/device:CPU:0"
  attr {
    key: "device_ordinal"
    value {
      i: 0
    }
  }
  attr {
    key: "dtypes"
    value {
      list {
        type: DT_FLOAT
        type: DT_FLOAT
        type: DT_FLOAT
      }
    }
  }
  attr {
    key: "layouts"
    value {
      list {
      }
    }
  }
  attr {
    key: "shapes"
    value {
      list {
        shape {
          dim {
            size: 32
          }
          dim {
            size: 224
          }
          dim {
            size: 224
          }
          dim {
            size: 6
          }
        }
        shape {
          dim {
            size: 32
          }
          dim {
            size: 1000
          }
        }
        shape {
          dim {
            size: 32
          }
        }
      }
    }
  }
}
node {
  name: "input_pipeline_task3/InfeedQueue/enqueue/1"
  op: "InfeedEnqueueTuple"
  input: "input_pipeline_task3/InfeedQueue/split/0:1"
  input: "input_pipeline_task3/InfeedQueue/split/1:1"
  input: "input_pipeline_task3/InfeedQueue/split/2:1"
  device: "/job:tpu_worker/task:3/device:CPU:0"
  attr {
    key: "device_ordinal"
    value {
      i: 1
    }
  }
  attr {
    key: "dtypes"
    value {
      list {
        type: DT_FLOAT
        type: DT_FLOAT
        type: DT_FLOAT
      }
    }
  }
  attr {
    key: "layouts"
    value {
      list {
      }
    }
  }
  attr {
    key: "shapes"
    value {
      list {
        shape {
          dim {
            size: 32
          }
          dim {
            size: 224
          }
          dim {
            size: 224
          }
          dim {
            size: 6
          }
        }
        shape {
          dim {
            size: 32
          }
          dim {
            size: 1000
          }
        }
        shape {
          dim {
            size: 32
          }
        }
      }
    }
  }
}
node {
  name: "input_pipeline_task3/InfeedQueue/enqueue/2"
  op: "InfeedEnqueueTuple"
  input: "input_pipeline_task3/InfeedQueue/split/0:2"
  input: "input_pipeline_task3/InfeedQueue/split/1:2"
  input: "input_pipeline_task3/InfeedQueue/split/2:2"
  device: "/job:tpu_worker/task:3/device:CPU:0"
  attr {
    key: "device_ordinal"
    value {
      i: 2
    }
  }
  attr {
    key: "dtypes"
    value {
      list {
        type: DT_FLOAT
        type: DT_FLOAT
        type: DT_FLOAT
      }
    }
  }
  attr {
    key: "layouts"
    value {
      list {
      }
    }
  }
  attr {
    key: "shapes"
    value {
      list {
        shape {
          dim {
            size: 32
          }
          dim {
            size: 224
          }
          dim {
            size: 224
          }
          dim {
            size: 6
          }
        }
        shape {
          dim {
            size: 32
          }
          dim {
            size: 1000
          }
        }
        shape {
          dim {
            size: 32
          }
        }
      }
    }
  }
}
node {
  name: "input_pipeline_task3/InfeedQueue/enqueue/3"
  op: "InfeedEnqueueTuple"
  input: "input_pipeline_task3/InfeedQueue/split/0:3"
  input: "input_pipeline_task3/InfeedQueue/split/1:3"
  input: "input_pipeline_task3/InfeedQueue/split/2:3"
  device: "/job:tpu_worker/task:3/device:CPU:0"
  attr {
    key: "device_ordinal"
    value {
      i: 3
    }
  }
  attr {
    key: "dtypes"
    value {
      list {
        type: DT_FLOAT
        type: DT_FLOAT
        type: DT_FLOAT
      }
    }
  }
  attr {
    key: "layouts"
    value {
      list {
      }
    }
  }
  attr {
    key: "shapes"
    value {
      list {
        shape {
          dim {
            size: 32
          }
          dim {
            size: 224
          }
          dim {
            size: 224
          }
          dim {
            size: 6
          }
        }
        shape {
          dim {
            size: 32
          }
          dim {
            size: 1000
          }
        }
        shape {
          dim {
            size: 32
          }
        }
      }
    }
  }
}
node {
  name: "input_pipeline_task3/InfeedQueue/enqueue/4"
  op: "InfeedEnqueueTuple"
  input: "input_pipeline_task3/InfeedQueue/split/0:4"
  input: "input_pipeline_task3/InfeedQueue/split/1:4"
  input: "input_pipeline_task3/InfeedQueue/split/2:4"
  device: "/job:tpu_worker/task:3/device:CPU:0"
  attr {
    key: "device_ordinal"
    value {
      i: 4
    }
  }
  attr {
    key: "dtypes"
    value {
      list {
        type: DT_FLOAT
        type: DT_FLOAT
        type: DT_FLOAT
      }
    }
  }
  attr {
    key: "layouts"
    value {
      list {
      }
    }
  }
  attr {
    key: "shapes"
    value {
      list {
        shape {
          dim {
            size: 32
          }
          dim {
            size: 224
          }
          dim {
            size: 224
          }
          dim {
            size: 6
          }
        }
        shape {
          dim {
            size: 32
          }
          dim {
            size: 1000
          }
        }
        shape {
          dim {
            size: 32
          }
        }
      }
    }
  }
}
node {
  name: "input_pipeline_task3/InfeedQueue/enqueue/5"
  op: "InfeedEnqueueTuple"
  input: "input_pipeline_task3/InfeedQueue/split/0:5"
  input: "input_pipeline_task3/InfeedQueue/split/1:5"
  input: "input_pipeline_task3/InfeedQueue/split/2:5"
  device: "/job:tpu_worker/task:3/device:CPU:0"
  attr {
    key: "device_ordinal"
    value {
      i: 5
    }
  }
  attr {
    key: "dtypes"
    value {
      list {
        type: DT_FLOAT
        type: DT_FLOAT
        type: DT_FLOAT
      }
    }
  }
  attr {
    key: "layouts"
    value {
      list {
      }
    }
  }
  attr {
    key: "shapes"
    value {
      list {
        shape {
          dim {
            size: 32
          }
          dim {
            size: 224
          }
          dim {
            size: 224
          }
          dim {
            size: 6
          }
        }
        shape {
          dim {
            size: 32
          }
          dim {
            size: 1000
          }
        }
        shape {
          dim {
            size: 32
          }
        }
      }
    }
  }
}
node {
  name: "input_pipeline_task3/InfeedQueue/enqueue/6"
  op: "InfeedEnqueueTuple"
  input: "input_pipeline_task3/InfeedQueue/split/0:6"
  input: "input_pipeline_task3/InfeedQueue/split/1:6"
  input: "input_pipeline_task3/InfeedQueue/split/2:6"
  device: "/job:tpu_worker/task:3/device:CPU:0"
  attr {
    key: "device_ordinal"
    value {
      i: 6
    }
  }
  attr {
    key: "dtypes"
    value {
      list {
        type: DT_FLOAT
        type: DT_FLOAT
        type: DT_FLOAT
      }
    }
  }
  attr {
    key: "layouts"
    value {
      list {
      }
    }
  }
  attr {
    key: "shapes"
    value {
      list {
        shape {
          dim {
            size: 32
          }
          dim {
            size: 224
          }
          dim {
            size: 224
          }
          dim {
            size: 6
          }
        }
        shape {
          dim {
            size: 32
          }
          dim {
            size: 1000
          }
        }
        shape {
          dim {
            size: 32
          }
        }
      }
    }
  }
}
node {
  name: "input_pipeline_task3/InfeedQueue/enqueue/7"
  op: "InfeedEnqueueTuple"
  input: "input_pipeline_task3/InfeedQueue/split/0:7"
  input: "input_pipeline_task3/InfeedQueue/split/1:7"
  input: "input_pipeline_task3/InfeedQueue/split/2:7"
  device: "/job:tpu_worker/task:3/device:CPU:0"
  attr {
    key: "device_ordinal"
    value {
      i: 7
    }
  }
  attr {
    key: "dtypes"
    value {
      list {
        type: DT_FLOAT
        type: DT_FLOAT
        type: DT_FLOAT
      }
    }
  }
  attr {
    key: "layouts"
    value {
      list {
      }
    }
  }
  attr {
    key: "shapes"
    value {
      list {
        shape {
          dim {
            size: 32
          }
          dim {
            size: 224
          }
          dim {
            size: 224
          }
          dim {
            size: 6
          }
        }
        shape {
          dim {
            size: 32
          }
          dim {
            size: 1000
          }
        }
        shape {
          dim {
            size: 32
          }
        }
      }
    }
  }
}
node {
  name: "input_pipeline_task4/normalize_element/component_0"
  op: "Const"
  device: "/job:tpu_worker/task:4/device:CPU:0"
  attr {
    key: "_output_shapes"
    value {
      list {
        shape {
          dim {
            size: 1024
          }
        }
      }
    }
  }
  attr {
    key: "dtype"
    value {
      type: DT_STRING
    }
  }
  attr {
    key: "value"
    value {
      tensor {
        dtype: DT_STRING
        tensor_shape {
          dim {
            size: 1024
          }
        }
        string_val: "…"
        string_val: "…"
        string_val: "…"
        string_val: "…"
        string_val: "…"
        string_val: "…"
        string_val: "…"
        string_val: "…"
        string_val: "…"
        string_val: "…"
        string_val: "…"
        string_val: "…"
        string_val: "…"
        string_val: "…"
        string_val: "…"
        string_val: "…"
        string_val: "…"
        string_val: "…"
        string_val: "…"
        string_val: "…"
        string_val: "…"
        string_val: "…"
        string_val: "…"
        string_val: "…"
        string_val: "…"
        string_val: "…"
        string_val: "…"
        string_val: "…"
        string_val: "…"
        string_val: "…"
        string_val: "…"
        string_val: "…"
        string_val: "…"
        string_val: "…"
        string_val: "…"
        string_val: "…"
        string_val: "…"
        string_val: "…"
        string_val: "…"
        string_val: "…"
        string_val: "…"
        string_val: "…"
        string_val: "…"
        string_val: "…"
        string_val: "…"
        string_val: "…"
        string_val: "…"
        string_val: "…"
        string_val: "…"
        string_val: "…"
        string_val: "…"
        string_val: "…"
        string_val: "…"
        string_val: "…"
        string_val: "…"
        string_val: "…"
        string_val: "…"
        string_val: "…"
        string_val: "…"
        string_val: "…"
        string_val: "…"
        string_val: "…"
        string_val: "…"
        string_val: "…"
        string_val: "…"
        string_val: "…"
        string_val: "…"
        string_val: "…"
        string_val: "…"
        string_val: "…"
        string_val: "…"
        string_val: "…"
        string_val: "…"
        string_val: "…"
        string_val: "…"
        string_val: "…"
        string_val: "…"
        string_val: "…"
        string_val: "…"
        string_val: "…"
        string_val: "…"
        string_val: "…"
        string_val: "…"
        string_val: "…"
        string_val: "…"
        string_val: "…"
        string_val: "…"
        string_val: "…"
        string_val: "…"
        string_val: "…"
        string_val: "…"
        string_val: "…"
        string_val: "…"
        string_val: "…"
        string_val: "…"
        string_val: "…"
        string_val: "…"
        string_val: "…"
        string_val: "…"
        string_val: "…"
        string_val: "…"
        string_val: "…"
        string_val: "…"
        string_val: "…"
        string_val: "…"
        string_val: "…"
        string_val: "…"
        string_val: "…"
        string_val: "…"
        string_val: "…"
        string_val: "…"
        string_val: "…"
        string_val: "…"
        string_val: "…"
        string_val: "…"
        string_val: "…"
        string_val: "…"
        string_val: "…"
        string_val: "…"
        string_val: "…"
        string_val: "…"
        string_val: "…"
        string_val: "…"
        string_val: "…"
        string_val: "…"
        string_val: "…"
        string_val: "…"
        string_val: "…"
        string_val: "…"
        string_val: "…"
        string_val: "…"
        string_val: "…"
        string_val: "…"
        string_val: "…"
        string_val: "…"
        string_val: "…"
        string_val: "…"
        string_val: "…"
        string_val: "…"
        string_val: "…"
        string_val: "…"
        string_val: "…"
        string_val: "…"
        string_val: "…"
        string_val: "…"
        string_val: "…"
        string_val: "…"
        string_val: "…"
        string_val: "…"
        string_val: "…"
        string_val: "…"
        string_val: "…"
        string_val: "…"
        string_val: "…"
        string_val: "…"
        string_val: "…"
        string_val: "…"
        string_val: "…"
        string_val: "…"
        string_val: "…"
        string_val: "…"
        string_val: "…"
        string_val: "…"
        string_val: "…"
        string_val: "…"
        string_val: "…"
        string_val: "…"
        string_val: "…"
        string_val: "…"
        string_val: "…"
        string_val: "…"
        string_val: "…"
        string_val: "…"
        string_val: "…"
        string_val: "…"
        string_val: "…"
        string_val: "…"
        string_val: "…"
        string_val: "…"
        string_val: "…"
        string_val: "…"
        string_val: "…"
        string_val: "…"
        string_val: "…"
        string_val: "…"
        string_val: "…"
        string_val: "…"
        string_val: "…"
        string_val: "…"
        string_val: "…"
        string_val: "…"
        string_val: "…"
        string_val: "…"
        string_val: "…"
        string_val: "…"
        string_val: "…"
        string_val: "…"
        string_val: "…"
        string_val: "…"
        string_val: "…"
        string_val: "…"
        string_val: "…"
        string_val: "…"
        string_val: "…"
        string_val: "…"
        string_val: "…"
        string_val: "…"
        string_val: "…"
        string_val: "…"
        string_val: "…"
        string_val: "…"
        string_val: "…"
        string_val: "…"
        string_val: "…"
        string_val: "…"
        string_val: "…"
        string_val: "…"
        string_val: "…"
        string_val: "…"
        string_val: "…"
        string_val: "…"
        string_val: "…"
        string_val: "…"
        string_val: "…"
        string_val: "…"
        string_val: "…"
        string_val: "…"
        string_val: "…"
        string_val: "…"
        string_val: "…"
        string_val: "…"
        string_val: "…"
        string_val: "…"
        string_val: "…"
        string_val: "…"
        string_val: "…"
        string_val: "…"
        string_val: "…"
        string_val: "…"
        string_val: "…"
        string_val: "…"
        string_val: "…"
        string_val: "…"
        string_val: "…"
        string_val: "…"
        string_val: "…"
        string_val: "…"
        string_val: "…"
        string_val: "…"
        string_val: "…"
        string_val: "…"
        string_val: "…"
        string_val: "…"
        string_val: "…"
        string_val: "…"
        string_val: "…"
        string_val: "…"
        string_val: "…"
        string_val: "…"
        string_val: "…"
        string_val: "…"
        string_val: "…"
        string_val: "…"
        string_val: "…"
        string_val: "…"
        string_val: "…"
        string_val: "…"
        string_val: "…"
        string_val: "…"
        string_val: "…"
        string_val: "…"
        string_val: "…"
        string_val: "…"
        string_val: "…"
        string_val: "…"
        string_val: "…"
        string_val: "…"
        string_val: "…"
        string_val: "…"
        string_val: "…"
        string_val: "…"
        string_val: "…"
        string_val: "…"
        string_val: "…"
        string_val: "…"
        string_val: "…"
        string_val: "…"
        string_val: "…"
        string_val: "…"
        string_val: "…"
        string_val: "…"
        string_val: "…"
        string_val: "…"
        string_val: "…"
        string_val: "…"
        string_val: "…"
        string_val: "…"
        string_val: "…"
        string_val: "…"
        string_val: "…"
        string_val: "…"
        string_val: "…"
        string_val: "…"
        string_val: "…"
        string_val: "…"
        string_val: "…"
        string_val: "…"
        string_val: "…"
        string_val: "…"
        string_val: "…"
        string_val: "…"
        string_val: "…"
        string_val: "…"
        string_val: "…"
        string_val: "…"
        string_val: "…"
        string_val: "…"
        string_val: "…"
        string_val: "…"
        string_val: "…"
        string_val: "…"
        string_val: "…"
        string_val: "…"
        string_val: "…"
        string_val: "…"
        string_val: "…"
        string_val: "…"
        string_val: "…"
        string_val: "…"
        string_val: "…"
        string_val: "…"
        string_val: "…"
        string_val: "…"
        string_val: "…"
        string_val: "…"
        string_val: "…"
        string_val: "…"
        string_val: "…"
        string_val: "…"
        string_val: "…"
        string_val: "…"
        string_val: "…"
        string_val: "…"
        string_val: "…"
        string_val: "…"
        string_val: "…"
        string_val: "…"
        string_val: "…"
        string_val: "…"
        string_val: "…"
        string_val: "…"
        string_val: "…"
        string_val: "…"
        string_val: "…"
        string_val: "…"
        string_val: "…"
        string_val: "…"
        string_val: "…"
        string_val: "…"
        string_val: "…"
        string_val: "…"
        string_val: "…"
        string_val: "…"
        string_val: "…"
        string_val: "…"
        string_val: "…"
        string_val: "…"
        string_val: "…"
        string_val: "…"
        string_val: "…"
        string_val: "…"
        string_val: "…"
        string_val: "…"
        string_val: "…"
        string_val: "…"
        string_val: "…"
        string_val: "…"
        string_val: "…"
        string_val: "…"
        string_val: "…"
        string_val: "…"
        string_val: "…"
        string_val: "…"
        string_val: "…"
        string_val: "…"
        string_val: "…"
        string_val: "…"
        string_val: "…"
        string_val: "…"
        string_val: "…"
        string_val: "…"
        string_val: "…"
        string_val: "…"
        string_val: "…"
        string_val: "…"
        string_val: "…"
        string_val: "…"
        string_val: "…"
        string_val: "…"
        string_val: "…"
        string_val: "…"
        string_val: "…"
        string_val: "…"
        string_val: "…"
        string_val: "…"
        string_val: "…"
        string_val: "…"
        string_val: "…"
        string_val: "…"
        string_val: "…"
        string_val: "…"
        string_val: "…"
        string_val: "…"
        string_val: "…"
        string_val: "…"
        string_val: "…"
        string_val: "…"
        string_val: "…"
        string_val: "…"
        string_val: "…"
        string_val: "…"
        string_val: "…"
        string_val: "…"
        string_val: "…"
        string_val: "…"
        string_val: "…"
        string_val: "…"
        string_val: "…"
        string_val: "…"
        string_val: "…"
        string_val: "…"
        string_val: "…"
        string_val: "…"
        string_val: "…"
        string_val: "…"
        string_val: "…"
        string_val: "…"
        string_val: "…"
        string_val: "…"
        string_val: "…"
        string_val: "…"
        string_val: "…"
        string_val: "…"
        string_val: "…"
        string_val: "…"
        string_val: "…"
        string_val: "…"
        string_val: "…"
        string_val: "…"
        string_val: "…"
        string_val: "…"
        string_val: "…"
        string_val: "…"
        string_val: "…"
        string_val: "…"
        string_val: "…"
        string_val: "…"
        string_val: "…"
        string_val: "…"
        string_val: "…"
        string_val: "…"
        string_val: "…"
        string_val: "…"
        string_val: "…"
        string_val: "…"
        string_val: "…"
        string_val: "…"
        string_val: "…"
        string_val: "…"
        string_val: "…"
        string_val: "…"
        string_val: "…"
        string_val: "…"
        string_val: "…"
        string_val: "…"
        string_val: "…"
        string_val: "…"
        string_val: "…"
        string_val: "…"
        string_val: "…"
        string_val: "…"
        string_val: "…"
        string_val: "…"
        string_val: "…"
        string_val: "…"
        string_val: "…"
        string_val: "…"
        string_val: "…"
        string_val: "…"
        string_val: "…"
        string_val: "…"
        string_val: "…"
        string_val: "…"
        string_val: "…"
        string_val: "…"
        string_val: "…"
        string_val: "…"
        string_val: "…"
        string_val: "…"
        string_val: "…"
        string_val: "…"
        string_val: "…"
        string_val: "…"
        string_val: "…"
        string_val: "…"
        string_val: "…"
        string_val: "…"
        string_val: "…"
        string_val: "…"
        string_val: "…"
        string_val: "…"
        string_val: "…"
        string_val: "…"
        string_val: "…"
        string_val: "…"
        string_val: "…"
        string_val: "…"
        string_val: "…"
        string_val: "…"
        string_val: "…"
        string_val: "…"
        string_val: "…"
        string_val: "…"
        string_val: "…"
        string_val: "…"
        string_val: "…"
        string_val: "…"
        string_val: "…"
        string_val: "…"
        string_val: "…"
        string_val: "…"
        string_val: "…"
        string_val: "…"
        string_val: "…"
        string_val: "…"
        string_val: "…"
        string_val: "…"
        string_val: "…"
        string_val: "…"
        string_val: "…"
        string_val: "…"
        string_val: "…"
        string_val: "…"
        string_val: "…"
        string_val: "…"
        string_val: "…"
        string_val: "…"
        string_val: "…"
        string_val: "…"
        string_val: "…"
        string_val: "…"
        string_val: "…"
        string_val: "…"
        string_val: "…"
        string_val: "…"
        string_val: "…"
        string_val: "…"
        string_val: "…"
        string_val: "…"
        string_val: "…"
        string_val: "…"
        string_val: "…"
        string_val: "…"
        string_val: "…"
        string_val: "…"
        string_val: "…"
        string_val: "…"
        string_val: "…"
        string_val: "…"
        string_val: "…"
        string_val: "…"
        string_val: "…"
        string_val: "…"
        string_val: "…"
        string_val: "…"
        string_val: "…"
        string_val: "…"
        string_val: "…"
        string_val: "…"
        string_val: "…"
        string_val: "…"
        string_val: "…"
        string_val: "…"
        string_val: "…"
        string_val: "…"
        string_val: "…"
        string_val: "…"
        string_val: "…"
        string_val: "…"
        string_val: "…"
        string_val: "…"
        string_val: "…"
        string_val: "…"
        string_val: "…"
        string_val: "…"
        string_val: "…"
        string_val: "…"
        string_val: "…"
        string_val: "…"
        string_val: "…"
        string_val: "…"
        string_val: "…"
        string_val: "…"
        string_val: "…"
        string_val: "…"
        string_val: "…"
        string_val: "…"
        string_val: "…"
        string_val: "…"
        string_val: "…"
        string_val: "…"
        string_val: "…"
        string_val: "…"
        string_val: "…"
        string_val: "…"
        string_val: "…"
        string_val: "…"
        string_val: "…"
        string_val: "…"
        string_val: "…"
        string_val: "…"
        string_val: "…"
        string_val: "…"
        string_val: "…"
        string_val: "…"
        string_val: "…"
        string_val: "…"
        string_val: "…"
        string_val: "…"
        string_val: "…"
        string_val: "…"
        string_val: "…"
        string_val: "…"
        string_val: "…"
        string_val: "…"
        string_val: "…"
        string_val: "…"
        string_val: "…"
        string_val: "…"
        string_val: "…"
        string_val: "…"
        string_val: "…"
        string_val: "…"
        string_val: "…"
        string_val: "…"
        string_val: "…"
        string_val: "…"
        string_val: "…"
        string_val: "…"
        string_val: "…"
        string_val: "…"
        string_val: "…"
        string_val: "…"
        string_val: "…"
        string_val: "…"
        string_val: "…"
        string_val: "…"
        string_val: "…"
        string_val: "…"
        string_val: "…"
        string_val: "…"
        string_val: "…"
        string_val: "…"
        string_val: "…"
        string_val: "…"
        string_val: "…"
        string_val: "…"
        string_val: "…"
        string_val: "…"
        string_val: "…"
        string_val: "…"
        string_val: "…"
        string_val: "…"
        string_val: "…"
        string_val: "…"
        string_val: "…"
        string_val: "…"
        string_val: "…"
        string_val: "…"
        string_val: "…"
        string_val: "…"
        string_val: "…"
        string_val: "…"
        string_val: "…"
        string_val: "…"
        string_val: "…"
        string_val: "…"
        string_val: "…"
        string_val: "…"
        string_val: "…"
        string_val: "…"
        string_val: "…"
        string_val: "…"
        string_val: "…"
        string_val: "…"
        string_val: "…"
        string_val: "…"
        string_val: "…"
        string_val: "…"
        string_val: "…"
        string_val: "…"
        string_val: "…"
        string_val: "…"
        string_val: "…"
        string_val: "…"
        string_val: "…"
        string_val: "…"
        string_val: "…"
        string_val: "…"
        string_val: "…"
        string_val: "…"
        string_val: "…"
        string_val: "…"
        string_val: "…"
        string_val: "…"
        string_val: "…"
        string_val: "…"
        string_val: "…"
        string_val: "…"
        string_val: "…"
        string_val: "…"
        string_val: "…"
        string_val: "…"
        string_val: "…"
        string_val: "…"
        string_val: "…"
        string_val: "…"
        string_val: "…"
        string_val: "…"
        string_val: "…"
        string_val: "…"
        string_val: "…"
        string_val: "…"
        string_val: "…"
        string_val: "…"
        string_val: "…"
        string_val: "…"
        string_val: "…"
        string_val: "…"
        string_val: "…"
        string_val: "…"
        string_val: "…"
        string_val: "…"
        string_val: "…"
        string_val: "…"
        string_val: "…"
        string_val: "…"
        string_val: "…"
        string_val: "…"
        string_val: "…"
        string_val: "…"
        string_val: "…"
        string_val: "…"
        string_val: "…"
        string_val: "…"
        string_val: "…"
        string_val: "…"
        string_val: "…"
        string_val: "…"
        string_val: "…"
        string_val: "…"
        string_val: "…"
        string_val: "…"
        string_val: "…"
        string_val: "…"
        string_val: "…"
        string_val: "…"
        string_val: "…"
        string_val: "…"
        string_val: "…"
        string_val: "…"
        string_val: "…"
        string_val: "…"
        string_val: "…"
        string_val: "…"
        string_val: "…"
        string_val: "…"
        string_val: "…"
        string_val: "…"
        string_val: "…"
        string_val: "…"
        string_val: "…"
        string_val: "…"
        string_val: "…"
        string_val: "…"
        string_val: "…"
        string_val: "…"
        string_val: "…"
        string_val: "…"
        string_val: "…"
        string_val: "…"
        string_val: "…"
        string_val: "…"
        string_val: "…"
        string_val: "…"
        string_val: "…"
        string_val: "…"
        string_val: "…"
        string_val: "…"
        string_val: "…"
        string_val: "…"
        string_val: "…"
        string_val: "…"
        string_val: "…"
        string_val: "…"
        string_val: "…"
        string_val: "…"
        string_val: "…"
        string_val: "…"
        string_val: "…"
        string_val: "…"
        string_val: "…"
        string_val: "…"
        string_val: "…"
        string_val: "…"
        string_val: "…"
        string_val: "…"
        string_val: "…"
        string_val: "…"
        string_val: "…"
        string_val: "…"
        string_val: "…"
        string_val: "…"
        string_val: "…"
        string_val: "…"
        string_val: "…"
        string_val: "…"
        string_val: "…"
        string_val: "…"
        string_val: "…"
        string_val: "…"
        string_val: "…"
        string_val: "…"
        string_val: "…"
        string_val: "…"
        string_val: "…"
        string_val: "…"
        string_val: "…"
        string_val: "…"
        string_val: "…"
        string_val: "…"
        string_val: "…"
        string_val: "…"
        string_val: "…"
        string_val: "…"
        string_val: "…"
        string_val: "…"
        string_val: "…"
        string_val: "…"
        string_val: "…"
        string_val: "…"
        string_val: "…"
        string_val: "…"
        string_val: "…"
        string_val: "…"
        string_val: "…"
        string_val: "…"
        string_val: "…"
        string_val: "…"
        string_val: "…"
        string_val: "…"
        string_val: "…"
        string_val: "…"
        string_val: "…"
        string_val: "…"
        string_val: "…"
        string_val: "…"
        string_val: "…"
        string_val: "…"
        string_val: "…"
        string_val: "…"
        string_val: "…"
        string_val: "…"
        string_val: "…"
        string_val: "…"
        string_val: "…"
        string_val: "…"
        string_val: "…"
        string_val: "…"
        string_val: "…"
        string_val: "…"
        string_val: "…"
        string_val: "…"
        string_val: "…"
        string_val: "…"
        string_val: "…"
        string_val: "…"
        string_val: "…"
        string_val: "…"
        string_val: "…"
        string_val: "…"
        string_val: "…"
        string_val: "…"
        string_val: "…"
        string_val: "…"
        string_val: "…"
        string_val: "…"
        string_val: "…"
        string_val: "…"
        string_val: "…"
        string_val: "…"
        string_val: "…"
        string_val: "…"
        string_val: "…"
        string_val: "…"
        string_val: "…"
        string_val: "…"
        string_val: "…"
        string_val: "…"
        string_val: "…"
        string_val: "…"
        string_val: "…"
        string_val: "…"
        string_val: "…"
        string_val: "…"
        string_val: "…"
        string_val: "…"
        string_val: "…"
        string_val: "…"
        string_val: "…"
        string_val: "…"
        string_val: "…"
        string_val: "…"
        string_val: "…"
        string_val: "…"
        string_val: "…"
        string_val: "…"
        string_val: "…"
        string_val: "…"
        string_val: "…"
        string_val: "…"
        string_val: "…"
        string_val: "…"
        string_val: "…"
        string_val: "…"
        string_val: "…"
        string_val: "…"
        string_val: "…"
        string_val: "…"
        string_val: "…"
        string_val: "…"
        string_val: "…"
        string_val: "…"
        string_val: "…"
        string_val: "…"
        string_val: "…"
        string_val: "…"
        string_val: "…"
        string_val: "…"
        string_val: "…"
        string_val: "…"
        string_val: "…"
        string_val: "…"
        string_val: "…"
        string_val: "…"
        string_val: "…"
        string_val: "…"
        string_val: "…"
        string_val: "…"
        string_val: "…"
        string_val: "…"
        string_val: "…"
        string_val: "…"
        string_val: "…"
        string_val: "…"
        string_val: "…"
        string_val: "…"
        string_val: "…"
        string_val: "…"
        string_val: "…"
        string_val: "…"
        string_val: "…"
        string_val: "…"
        string_val: "…"
        string_val: "…"
        string_val: "…"
        string_val: "…"
        string_val: "…"
        string_val: "…"
        string_val: "…"
        string_val: "…"
        string_val: "…"
        string_val: "…"
        string_val: "…"
        string_val: "…"
        string_val: "…"
        string_val: "…"
        string_val: "…"
        string_val: "…"
        string_val: "…"
        string_val: "…"
        string_val: "…"
        string_val: "…"
        string_val: "…"
        string_val: "…"
        string_val: "…"
        string_val: "…"
        string_val: "…"
        string_val: "…"
        string_val: "…"
        string_val: "…"
        string_val: "…"
        string_val: "…"
        string_val: "…"
        string_val: "…"
        string_val: "…"
        string_val: "…"
        string_val: "…"
        string_val: "…"
        string_val: "…"
        string_val: "…"
        string_val: "…"
        string_val: "…"
        string_val: "…"
        string_val: "…"
        string_val: "…"
        string_val: "…"
        string_val: "…"
        string_val: "…"
        string_val: "…"
        string_val: "…"
        string_val: "…"
        string_val: "…"
        string_val: "…"
      }
    }
  }
}
node {
  name: "input_pipeline_task4/normalize_element/component_1"
  op: "Const"
  device: "/job:tpu_worker/task:4/device:CPU:0"
  attr {
    key: "_output_shapes"
    value {
      list {
        shape {
          dim {
            size: 1024
          }
        }
      }
    }
  }
  attr {
    key: "dtype"
    value {
      type: DT_INT64
    }
  }
  attr {
    key: "value"
    value {
      tensor {
        dtype: DT_INT64
        tensor_shape {
          dim {
            size: 1024
          }
        }
        tensor_content: "…"